Args: /home/lfr/MLIR_Tutorial/build/15-lowing_to_llvm/src/Tools/NS-opt/NS-opt15 /home/lfr/MLIR_Tutorial/15-lowing_to_llvm/test/Pipeline/to_llvm_pipeline.mlir --north-star-basic-pipeline=DP_Nums=2 --mlir-print-ir-after-all --debug 
Load new dialect in Context builtin
ImplicitTypeIDRegistry::lookupOrInsert(mlir::ShapedType)
ImplicitTypeIDRegistry::lookupOrInsert(mlir::MemRefLayoutAttrInterface)
ImplicitTypeIDRegistry::lookupOrInsert(mlir::TypedAttr)
ImplicitTypeIDRegistry::lookupOrInsert(mlir::ElementsAttr)
ImplicitTypeIDRegistry::lookupOrInsert(mlir::DistinctAttr)
ImplicitTypeIDRegistry::lookupOrInsert(mlir::BytecodeOpInterface)
ImplicitTypeIDRegistry::lookupOrInsert(mlir::SymbolOpInterface)
ImplicitTypeIDRegistry::lookupOrInsert(mlir::OpAsmOpInterface)
ImplicitTypeIDRegistry::lookupOrInsert(mlir::RegionKindInterface)
ImplicitTypeIDRegistry::lookupOrInsert(mlir::ConditionallySpeculatable)
ImplicitTypeIDRegistry::lookupOrInsert(mlir::MemoryEffectOpInterface)
ImplicitTypeIDRegistry::lookupOrInsert(mlir::ResourceBlobManagerDialectInterface)
ImplicitTypeIDRegistry::lookupOrInsert(mlir::OpAsmDialectInterface)
ImplicitTypeIDRegistry::lookupOrInsert(mlir::BytecodeDialectInterface)
ImplicitTypeIDRegistry::lookupOrInsert(mlir::detail::AffineBinaryOpExprStorage)
ImplicitTypeIDRegistry::lookupOrInsert(mlir::detail::AffineConstantExprStorage)
ImplicitTypeIDRegistry::lookupOrInsert(mlir::detail::AffineDimExprStorage)
ImplicitTypeIDRegistry::lookupOrInsert(mlir::detail::AffineMapStorage)
ImplicitTypeIDRegistry::lookupOrInsert(mlir::detail::IntegerSetStorage)
Load new dialect in Context builtin
ImplicitTypeIDRegistry::lookupOrInsert(mlir::OpTrait::ZeroOperands<mlir::TypeID::get() [with Trait = mlir::OpTrait::ZeroOperands]::Empty>)
ImplicitTypeIDRegistry::lookupOrInsert(mlir::OpTrait::OneRegion<mlir::TypeID::get() [with Trait = mlir::OpTrait::OneRegion]::Empty>)
ImplicitTypeIDRegistry::lookupOrInsert(mlir::OpTrait::ZeroResults<mlir::TypeID::get() [with Trait = mlir::OpTrait::ZeroResults]::Empty>)
ImplicitTypeIDRegistry::lookupOrInsert(mlir::OpTrait::ZeroSuccessors<mlir::TypeID::get() [with Trait = mlir::OpTrait::ZeroSuccessors]::Empty>)
ImplicitTypeIDRegistry::lookupOrInsert(mlir::OpTrait::NoRegionArguments<mlir::TypeID::get() [with Trait = mlir::OpTrait::NoRegionArguments]::Empty>)
ImplicitTypeIDRegistry::lookupOrInsert(mlir::OpTrait::NoTerminator<mlir::TypeID::get() [with Trait = mlir::OpTrait::NoTerminator]::Empty>)
ImplicitTypeIDRegistry::lookupOrInsert(mlir::OpTrait::SingleBlock<mlir::TypeID::get() [with Trait = mlir::OpTrait::SingleBlock]::Empty>)
ImplicitTypeIDRegistry::lookupOrInsert(mlir::OpTrait::OpInvariants<mlir::TypeID::get() [with Trait = mlir::OpTrait::OpInvariants]::Empty>)
ImplicitTypeIDRegistry::lookupOrInsert(mlir::BytecodeOpInterface::Trait<mlir::TypeID::get() [with Trait = mlir::BytecodeOpInterface::Trait]::Empty>)
ImplicitTypeIDRegistry::lookupOrInsert(mlir::OpTrait::AffineScope<mlir::TypeID::get() [with Trait = mlir::OpTrait::AffineScope]::Empty>)
ImplicitTypeIDRegistry::lookupOrInsert(mlir::OpTrait::IsIsolatedFromAbove<mlir::TypeID::get() [with Trait = mlir::OpTrait::IsIsolatedFromAbove]::Empty>)
ImplicitTypeIDRegistry::lookupOrInsert(mlir::OpTrait::SymbolTable<mlir::TypeID::get() [with Trait = mlir::OpTrait::SymbolTable]::Empty>)
ImplicitTypeIDRegistry::lookupOrInsert(mlir::SymbolOpInterface::Trait<mlir::TypeID::get() [with Trait = mlir::SymbolOpInterface::Trait]::Empty>)
ImplicitTypeIDRegistry::lookupOrInsert(mlir::OpAsmOpInterface::Trait<mlir::TypeID::get() [with Trait = mlir::OpAsmOpInterface::Trait]::Empty>)
ImplicitTypeIDRegistry::lookupOrInsert(mlir::RegionKindInterface::Trait<mlir::TypeID::get() [with Trait = mlir::RegionKindInterface::Trait]::Empty>)
ImplicitTypeIDRegistry::lookupOrInsert(mlir::OpTrait::HasOnlyGraphRegion<mlir::TypeID::get() [with Trait = mlir::OpTrait::HasOnlyGraphRegion]::Empty>)
ImplicitTypeIDRegistry::lookupOrInsert(mlir::detail::ModuleOpGenericAdaptorBase::Properties)
Load new dialect in Context func
ImplicitTypeIDRegistry::lookupOrInsert(mlir::CallOpInterface)
ImplicitTypeIDRegistry::lookupOrInsert(mlir::SymbolUserOpInterface)
ImplicitTypeIDRegistry::lookupOrInsert(mlir::CallableOpInterface)
ImplicitTypeIDRegistry::lookupOrInsert(mlir::FunctionOpInterface)
ImplicitTypeIDRegistry::lookupOrInsert(mlir::RegionBranchTerminatorOpInterface)
ImplicitTypeIDRegistry::lookupOrInsert(mlir::DialectInlinerInterface)
ImplicitTypeIDRegistry::lookupOrInsert(mlir::ConvertToLLVMPatternInterface)
ImplicitTypeIDRegistry::lookupOrInsert(mlir::bufferization::BufferizableOpInterface)
ImplicitTypeIDRegistry::lookupOrInsert(mlir::OpTrait::AutomaticAllocationScope<mlir::TypeID::get() [with Trait = mlir::OpTrait::AutomaticAllocationScope]::Empty>)
ImplicitTypeIDRegistry::lookupOrInsert(mlir::CallableOpInterface::Trait<mlir::TypeID::get() [with Trait = mlir::CallableOpInterface::Trait]::Empty>)
ImplicitTypeIDRegistry::lookupOrInsert(mlir::FunctionOpInterface::Trait<mlir::TypeID::get() [with Trait = mlir::FunctionOpInterface::Trait]::Empty>)
Load new dialect in Context north_star
Load new dialect in Context tensor
Load new dialect in Context affine
Load new dialect in Context arith
ImplicitTypeIDRegistry::lookupOrInsert(mlir::arith::ArithFastMathInterface)
ImplicitTypeIDRegistry::lookupOrInsert(mlir::VectorUnrollOpInterface)
ImplicitTypeIDRegistry::lookupOrInsert(mlir::InferTypeOpInterface)
ImplicitTypeIDRegistry::lookupOrInsert(mlir::InferIntRangeInterface)
ImplicitTypeIDRegistry::lookupOrInsert(mlir::arith::ArithIntegerOverflowFlagsInterface)
ImplicitTypeIDRegistry::lookupOrInsert(mlir::CastOpInterface)
ImplicitTypeIDRegistry::lookupOrInsert(mlir::arith::ArithRoundingModeInterface)
ImplicitTypeIDRegistry::lookupOrInsert(mlir::bufferization::BufferDeallocationOpInterface)
ImplicitTypeIDRegistry::lookupOrInsert(mlir::ValueBoundsOpInterface)
Load new dialect in Context ub
ImplicitTypeIDRegistry::lookupOrInsert(mlir::ub::PoisonAttrInterface)
ImplicitTypeIDRegistry::lookupOrInsert(mlir::affine::AffineMapAccessInterface)
ImplicitTypeIDRegistry::lookupOrInsert(mlir::affine::AffineDmaStartOp)
ImplicitTypeIDRegistry::lookupOrInsert(mlir::affine::AffineDmaWaitOp)
ImplicitTypeIDRegistry::lookupOrInsert(mlir::LoopLikeOpInterface)
ImplicitTypeIDRegistry::lookupOrInsert(mlir::RegionBranchOpInterface)
ImplicitTypeIDRegistry::lookupOrInsert(mlir::affine::AffineReadOpInterface)
ImplicitTypeIDRegistry::lookupOrInsert(mlir::affine::AffineWriteOpInterface)
Load new dialect in Context complex
ImplicitTypeIDRegistry::lookupOrInsert(mlir::ReifyRankedShapedTypeOpInterface)
ImplicitTypeIDRegistry::lookupOrInsert(mlir::ShapedDimOpInterface)
ImplicitTypeIDRegistry::lookupOrInsert(mlir::OffsetSizeAndStrideOpInterface)
ImplicitTypeIDRegistry::lookupOrInsert(mlir::DestinationStyleOpInterface)
ImplicitTypeIDRegistry::lookupOrInsert(mlir::transform::FindPayloadReplacementOpInterface)
ImplicitTypeIDRegistry::lookupOrInsert(mlir::SubsetOpInterface)
ImplicitTypeIDRegistry::lookupOrInsert(mlir::SubsetInsertionOpInterface)
ImplicitTypeIDRegistry::lookupOrInsert(mlir::SubsetExtractionOpInterface)
ImplicitTypeIDRegistry::lookupOrInsert(mlir::TilingInterface)
Load new dialect in Context linalg
Load new dialect in Context math
Load new dialect in Context memref
ImplicitTypeIDRegistry::lookupOrInsert(mlir::CopyOpInterface)
ImplicitTypeIDRegistry::lookupOrInsert(mlir::PromotableMemOpInterface)
ImplicitTypeIDRegistry::lookupOrInsert(mlir::DestructurableAccessorOpInterface)
ImplicitTypeIDRegistry::lookupOrInsert(mlir::PromotableAllocationOpInterface)
ImplicitTypeIDRegistry::lookupOrInsert(mlir::DestructurableAllocationOpInterface)
ImplicitTypeIDRegistry::lookupOrInsert(mlir::ViewLikeOpInterface)
ImplicitTypeIDRegistry::lookupOrInsert(mlir::bufferization::AllocationOpInterface)
ImplicitTypeIDRegistry::lookupOrInsert(mlir::RuntimeVerifiableOpInterface)
ImplicitTypeIDRegistry::lookupOrInsert(mlir::DestructurableTypeInterface)
ImplicitTypeIDRegistry::lookupOrInsert(mlir::linalg::AggregatedOpInterface)
ImplicitTypeIDRegistry::lookupOrInsert(mlir::linalg::LinalgOp)
ImplicitTypeIDRegistry::lookupOrInsert(mlir::linalg::ContractionOpInterface)
ImplicitTypeIDRegistry::lookupOrInsert(mlir::linalg::ConvolutionOpInterface)
ImplicitTypeIDRegistry::lookupOrInsert(mlir::linalg::FillOpInterface)
ImplicitTypeIDRegistry::lookupOrInsert(mlir::mesh::ShardingInterface)
ImplicitTypeIDRegistry::lookupOrInsert(mlir::PartialReductionOpInterface)
ImplicitTypeIDRegistry::lookupOrInsert(mlir::DistributeParallelAttr)
ImplicitTypeIDRegistry::lookupOrInsert(mlir::DataParallelAttr)
ImplicitTypeIDRegistry::lookupOrInsert(mlir::DistributeParallelOp)
ImplicitTypeIDRegistry::lookupOrInsert(mlir::SupportedDataParallelismOp)
ImplicitTypeIDRegistry::lookupOrInsert(mlir::BuiltinFunctionOpInterface)
ImplicitTypeIDRegistry::lookupOrInsert(mlir::FusionRegionOpInterfaces)
ImplicitTypeIDRegistry::lookupOrInsert(mlir::OpTrait::ZeroRegions<mlir::TypeID::get() [with Trait = mlir::OpTrait::ZeroRegions]::Empty>)
ImplicitTypeIDRegistry::lookupOrInsert(mlir::OpTrait::VariadicOperands<mlir::TypeID::get() [with Trait = mlir::OpTrait::VariadicOperands]::Empty>)
ImplicitTypeIDRegistry::lookupOrInsert(mlir::OpTrait::HasParent<mlir::func::FuncOp>::Impl<mlir::TypeID::get() [with Trait = mlir::OpTrait::HasParent<mlir::func::FuncOp>::Impl]::Empty>)
ImplicitTypeIDRegistry::lookupOrInsert(mlir::ConditionallySpeculatable::Trait<mlir::TypeID::get() [with Trait = mlir::ConditionallySpeculatable::Trait]::Empty>)
ImplicitTypeIDRegistry::lookupOrInsert(mlir::OpTrait::AlwaysSpeculatableImplTrait<mlir::TypeID::get() [with Trait = mlir::OpTrait::AlwaysSpeculatableImplTrait]::Empty>)
ImplicitTypeIDRegistry::lookupOrInsert(mlir::MemoryEffectOpInterface::Trait<mlir::TypeID::get() [with Trait = mlir::MemoryEffectOpInterface::Trait]::Empty>)
ImplicitTypeIDRegistry::lookupOrInsert(mlir::OpTrait::MemRefsNormalizable<mlir::TypeID::get() [with Trait = mlir::OpTrait::MemRefsNormalizable]::Empty>)
ImplicitTypeIDRegistry::lookupOrInsert(mlir::RegionBranchTerminatorOpInterface::Trait<mlir::TypeID::get() [with Trait = mlir::RegionBranchTerminatorOpInterface::Trait]::Empty>)
ImplicitTypeIDRegistry::lookupOrInsert(mlir::OpTrait::ReturnLike<mlir::TypeID::get() [with Trait = mlir::OpTrait::ReturnLike]::Empty>)
ImplicitTypeIDRegistry::lookupOrInsert(mlir::OpTrait::IsTerminator<mlir::TypeID::get() [with Trait = mlir::OpTrait::IsTerminator]::Empty>)
ImplicitTypeIDRegistry::lookupOrInsert(mlir::DataLayoutSpecInterface)
ImplicitTypeIDRegistry::lookupOrInsert(mlir::OpTrait::OneResult<mlir::TypeID::get() [with Trait = mlir::OpTrait::OneResult]::Empty>)
ImplicitTypeIDRegistry::lookupOrInsert(mlir::OpTrait::OneTypedResult<mlir::Type>::Impl<mlir::TypeID::get() [with Trait = mlir::OpTrait::OneTypedResult<mlir::Type>::Impl]::Empty>)
ImplicitTypeIDRegistry::lookupOrInsert(mlir::OpTrait::OneOperand<mlir::TypeID::get() [with Trait = mlir::OpTrait::OneOperand]::Empty>)
ImplicitTypeIDRegistry::lookupOrInsert(mlir::DistributeParallelOp::Trait<mlir::TypeID::get() [with Trait = mlir::DistributeParallelOp::Trait]::Empty>)
ImplicitTypeIDRegistry::lookupOrInsert(mlir::SupportedDataParallelismOp::Trait<mlir::TypeID::get() [with Trait = mlir::SupportedDataParallelismOp::Trait]::Empty>)
ImplicitTypeIDRegistry::lookupOrInsert(mlir::detail::OpToOpPassAdaptor)
Load new dialect in Context bufferization
Load new dialect in Context llvm
ImplicitTypeIDRegistry::lookupOrInsert(mlir::LLVM::DIRecursiveTypeAttrInterface)
ImplicitTypeIDRegistry::lookupOrInsert(mlir::LLVM::LLVMVoidType)
ImplicitTypeIDRegistry::lookupOrInsert(mlir::LLVM::LLVMPPCFP128Type)
ImplicitTypeIDRegistry::lookupOrInsert(mlir::LLVM::LLVMX86MMXType)
ImplicitTypeIDRegistry::lookupOrInsert(mlir::LLVM::LLVMTokenType)
ImplicitTypeIDRegistry::lookupOrInsert(mlir::LLVM::LLVMLabelType)
ImplicitTypeIDRegistry::lookupOrInsert(mlir::LLVM::LLVMMetadataType)
ImplicitTypeIDRegistry::lookupOrInsert(mlir::LLVM::LLVMStructType)
ImplicitTypeIDRegistry::lookupOrInsert(mlir::DataLayoutTypeInterface)
ImplicitTypeIDRegistry::lookupOrInsert(mlir::LLVM::IntegerOverflowFlagsInterface)
ImplicitTypeIDRegistry::lookupOrInsert(mlir::PromotableOpInterface)
ImplicitTypeIDRegistry::lookupOrInsert(mlir::LLVM::GetResultPtrElementType)
ImplicitTypeIDRegistry::lookupOrInsert(mlir::LLVM::AccessGroupOpInterface)
ImplicitTypeIDRegistry::lookupOrInsert(mlir::LLVM::AliasAnalysisOpInterface)
ImplicitTypeIDRegistry::lookupOrInsert(mlir::BranchOpInterface)
ImplicitTypeIDRegistry::lookupOrInsert(mlir::LLVM::FastmathFlagsInterface)
ImplicitTypeIDRegistry::lookupOrInsert(mlir::LLVM::BranchWeightOpInterface)
ImplicitTypeIDRegistry::lookupOrInsert(mlir::SafeMemorySlotAccessOpInterface)
ImplicitTypeIDRegistry::lookupOrInsert(mlir::LLVM::FPExceptionBehaviorOpInterface)
ImplicitTypeIDRegistry::lookupOrInsert(mlir::LLVM::RoundingModeOpInterface)
Load new dialect in Context transform
ImplicitTypeIDRegistry::lookupOrInsert(mlir::transform::TransformOpInterface)
ImplicitTypeIDRegistry::lookupOrInsert(mlir::transform::PatternDescriptorOpInterface)
ImplicitTypeIDRegistry::lookupOrInsert(mlir::transform::ConversionPatternDescriptorOpInterface)
ImplicitTypeIDRegistry::lookupOrInsert(mlir::transform::TypeConverterBuilderOpInterface)
ImplicitTypeIDRegistry::lookupOrInsert(mlir::transform::MatchOpInterface)
ImplicitTypeIDRegistry::lookupOrInsert(mlir::transform::TransformParamTypeInterface)
ImplicitTypeIDRegistry::lookupOrInsert(mlir::transform::TransformHandleTypeInterface)
ImplicitTypeIDRegistry::lookupOrInsert(mlir::transform::TransformValueHandleTypeInterface)
Load new dialect in Context index
Load new dialect in Context scf
ImplicitTypeIDRegistry::lookupOrInsert(mlir::ParallelCombiningOpInterface)
Load new dialect in Context vector
ImplicitTypeIDRegistry::lookupOrInsert(mlir::vector::MaskableOpInterface)
ImplicitTypeIDRegistry::lookupOrInsert(mlir::vector::MaskingOpInterface)
ImplicitTypeIDRegistry::lookupOrInsert(mlir::VectorTransferOpInterface)
Load new dialect in Context gpu
ImplicitTypeIDRegistry::lookupOrInsert(mlir::gpu::AsyncTokenType)
ImplicitTypeIDRegistry::lookupOrInsert(mlir::gpu::MMAMatrixType)
ImplicitTypeIDRegistry::lookupOrInsert(mlir::gpu::SparseDnTensorHandleType)
ImplicitTypeIDRegistry::lookupOrInsert(mlir::gpu::SparseSpMatHandleType)
ImplicitTypeIDRegistry::lookupOrInsert(mlir::gpu::SparseSpGEMMOpHandleType)
ImplicitTypeIDRegistry::lookupOrInsert(mlir::gpu::AsyncOpInterface)
ImplicitTypeIDRegistry::lookupOrInsert(mlir::DataLayoutOpInterface)
ImplicitTypeIDRegistry::lookupOrInsert(mlir::DeviceMappingAttrInterface)
run in MarkDistributeParallelParametersPass
root op: builtin.module
DPNums: 2
TPNums: 1
EPNums: 0
run out: MarkDistributeParallelParametersPass
ImplicitTypeIDRegistry::lookupOrInsert(mlir::detail::PreservedAnalyses::AllAnalysesType)
// -----// IR Dump After MarkDistributeParallelParametersPass (mark-distribute-parallel-parameters) //----- //
module @NorthStar {
  func.func @main(%arg0: !north_star.ns_tensor<2x128xf32,0>) -> !north_star.ns_tensor<2x128xf32,0> attributes {dp_attr = #north_star.DP<DP = 2 : 0, 1>, host_func} {
    %0 = "north_star.softmax"(%arg0) <{axis = 1 : i64}> : (!north_star.ns_tensor<2x128xf32,0>) -> !north_star.ns_tensor<2x128xf32,0>
    %1 = "north_star.softmax"(%0) <{axis = 1 : i64}> : (!north_star.ns_tensor<2x128xf32,0>) -> !north_star.ns_tensor<2x128xf32,0>
    return %1 : !north_star.ns_tensor<2x128xf32,0>
  }
}


run in ApplyDistributeTransformPass
root op: func.func
ImplicitTypeIDRegistry::lookupOrInsert(mlir::north_star::detail::BufferCastOpGenericAdaptorBase::Properties)
Apply DataParallelism to north_star.softmax
Apply DataParallelism to north_star.softmax
run out: ApplyDistributeTransformPass
// -----// IR Dump After ApplyDistributeTransformPass (apply-distribute-transform) //----- //
func.func @main(%arg0: !north_star.ns_tensor<2x128xf32,0>) -> !north_star.ns_tensor<2x128xf32,0> attributes {dp_attr = #north_star.DP<DP = 2 : 0, 1>, host_func} {
  %0:2 = "north_star.buffer_cast"(%arg0) <{distribute_attr = #north_star.DP<DP = 2 : 0, 1>}> : (!north_star.ns_tensor<2x128xf32,0>) -> (!north_star.ns_tensor<1x128xf32,0>, !north_star.ns_tensor<1x128xf32,1>)
  %1 = "north_star.softmax"(%0#0) <{axis = 1 : i64}> : (!north_star.ns_tensor<1x128xf32,0>) -> !north_star.ns_tensor<1x128xf32,0>
  %2 = "north_star.softmax"(%0#1) <{axis = 1 : i64}> : (!north_star.ns_tensor<1x128xf32,1>) -> !north_star.ns_tensor<1x128xf32,1>
  %3 = "north_star.buffer_cast"(%1, %2) <{distribute_attr = #north_star.DP<DP = 2 : 0, 1>}> : (!north_star.ns_tensor<1x128xf32,0>, !north_star.ns_tensor<1x128xf32,1>) -> !north_star.ns_tensor<2x128xf32,0>
  %4:2 = "north_star.buffer_cast"(%3) <{distribute_attr = #north_star.DP<DP = 2 : 0, 1>}> : (!north_star.ns_tensor<2x128xf32,0>) -> (!north_star.ns_tensor<1x128xf32,0>, !north_star.ns_tensor<1x128xf32,1>)
  %5 = "north_star.softmax"(%4#0) <{axis = 1 : i64}> : (!north_star.ns_tensor<1x128xf32,0>) -> !north_star.ns_tensor<1x128xf32,0>
  %6 = "north_star.softmax"(%4#1) <{axis = 1 : i64}> : (!north_star.ns_tensor<1x128xf32,1>) -> !north_star.ns_tensor<1x128xf32,1>
  %7 = "north_star.buffer_cast"(%5, %6) <{distribute_attr = #north_star.DP<DP = 2 : 0, 1>}> : (!north_star.ns_tensor<1x128xf32,0>, !north_star.ns_tensor<1x128xf32,1>) -> !north_star.ns_tensor<2x128xf32,0>
  return %7 : !north_star.ns_tensor<2x128xf32,0>
}

ImplicitTypeIDRegistry::lookupOrInsert(mlir::OpTrait::VariadicResults<mlir::TypeID::get() [with Trait = mlir::OpTrait::VariadicResults]::Empty>)
ImplicitTypeIDRegistry::lookupOrInsert(mlir::DialectFoldInterface)
ImplicitTypeIDRegistry::lookupOrInsert(mlir::OpTrait::ConstantLike<mlir::TypeID::get() [with Trait = mlir::OpTrait::ConstantLike]::Empty>)

//===-------------------------------------------===//
Processing operation : 'func.func'(0x5c9590a104b0) {
} -> failure : pattern failed to match
//===-------------------------------------------===//

//===-------------------------------------------===//
Processing operation : 'north_star.buffer_cast'(0x5c9590aa6950) {
  %0:2 = "north_star.buffer_cast"(%arg0) <{distribute_attr = #north_star.DP<DP = 2 : 0, 1>}> : (!north_star.ns_tensor<2x128xf32,0>) -> (!north_star.ns_tensor<1x128xf32,0>, !north_star.ns_tensor<1x128xf32,1>)


  * Pattern mlir::north_star::{anonymous}::BufferCastOpFold : 'north_star.buffer_cast -> ()' {
Trying to match "mlir::north_star::{anonymous}::BufferCastOpFold"
"mlir::north_star::{anonymous}::BufferCastOpFold" result 0
  } -> failure : pattern failed to match
} -> failure : pattern failed to match
//===-------------------------------------------===//

//===-------------------------------------------===//
Processing operation : 'north_star.softmax'(0x5c9590a921e0) {
  %1 = "north_star.softmax"(%0#0) <{axis = 1 : i64}> : (!north_star.ns_tensor<1x128xf32,0>) -> !north_star.ns_tensor<1x128xf32,0>

} -> failure : pattern failed to match
//===-------------------------------------------===//

//===-------------------------------------------===//
Processing operation : 'north_star.softmax'(0x5c9590aa6380) {
  %2 = "north_star.softmax"(%0#1) <{axis = 1 : i64}> : (!north_star.ns_tensor<1x128xf32,1>) -> !north_star.ns_tensor<1x128xf32,1>

} -> failure : pattern failed to match
//===-------------------------------------------===//

//===-------------------------------------------===//
Processing operation : 'north_star.buffer_cast'(0x5c9590aa69f0) {
  %3 = "north_star.buffer_cast"(%1, %2) <{distribute_attr = #north_star.DP<DP = 2 : 0, 1>}> : (!north_star.ns_tensor<1x128xf32,0>, !north_star.ns_tensor<1x128xf32,1>) -> !north_star.ns_tensor<2x128xf32,0>


  * Pattern mlir::north_star::{anonymous}::BufferCastOpFold : 'north_star.buffer_cast -> ()' {
Trying to match "mlir::north_star::{anonymous}::BufferCastOpFold"
"mlir::north_star::{anonymous}::BufferCastOpFold" result 0
  } -> failure : pattern failed to match
} -> failure : pattern failed to match
//===-------------------------------------------===//

//===-------------------------------------------===//
Processing operation : 'north_star.buffer_cast'(0x5c9590aa7370) {
  %4:2 = "north_star.buffer_cast"(%3) <{distribute_attr = #north_star.DP<DP = 2 : 0, 1>}> : (!north_star.ns_tensor<2x128xf32,0>) -> (!north_star.ns_tensor<1x128xf32,0>, !north_star.ns_tensor<1x128xf32,1>)


  * Pattern mlir::north_star::{anonymous}::BufferCastOpFold : 'north_star.buffer_cast -> ()' {
Trying to match "mlir::north_star::{anonymous}::BufferCastOpFold"
    ** Modified: 'north_star.softmax'(0x5c9590a0f8a0)
    ** Modified: 'north_star.softmax'(0x5c9590aa72d0)
    ** Erase   : 'north_star.buffer_cast'(0x5c9590aa7370)
    ** Erase   : 'north_star.buffer_cast'(0x5c9590aa69f0)
"mlir::north_star::{anonymous}::BufferCastOpFold" result 1
  } -> success : pattern applied successfully
// *** IR Dump After Pattern Application ***
func.func @main(%arg0: !north_star.ns_tensor<2x128xf32,0>) -> !north_star.ns_tensor<2x128xf32,0> attributes {dp_attr = #north_star.DP<DP = 2 : 0, 1>, host_func} {
  %0:2 = "north_star.buffer_cast"(%arg0) <{distribute_attr = #north_star.DP<DP = 2 : 0, 1>}> : (!north_star.ns_tensor<2x128xf32,0>) -> (!north_star.ns_tensor<1x128xf32,0>, !north_star.ns_tensor<1x128xf32,1>)
  %1 = "north_star.softmax"(%0#0) <{axis = 1 : i64}> : (!north_star.ns_tensor<1x128xf32,0>) -> !north_star.ns_tensor<1x128xf32,0>
  %2 = "north_star.softmax"(%0#1) <{axis = 1 : i64}> : (!north_star.ns_tensor<1x128xf32,1>) -> !north_star.ns_tensor<1x128xf32,1>
  %3 = "north_star.softmax"(%1) <{axis = 1 : i64}> : (!north_star.ns_tensor<1x128xf32,0>) -> !north_star.ns_tensor<1x128xf32,0>
  %4 = "north_star.softmax"(%2) <{axis = 1 : i64}> : (!north_star.ns_tensor<1x128xf32,1>) -> !north_star.ns_tensor<1x128xf32,1>
  %5 = "north_star.buffer_cast"(%3, %4) <{distribute_attr = #north_star.DP<DP = 2 : 0, 1>}> : (!north_star.ns_tensor<1x128xf32,0>, !north_star.ns_tensor<1x128xf32,1>) -> !north_star.ns_tensor<2x128xf32,0>
  return %5 : !north_star.ns_tensor<2x128xf32,0>
}


} -> success : pattern matched
//===-------------------------------------------===//

//===-------------------------------------------===//
Processing operation : 'north_star.softmax'(0x5c9590aa6380) {
  %2 = "north_star.softmax"(%0#1) <{axis = 1 : i64}> : (!north_star.ns_tensor<1x128xf32,1>) -> !north_star.ns_tensor<1x128xf32,1>

} -> failure : pattern failed to match
//===-------------------------------------------===//

//===-------------------------------------------===//
Processing operation : 'north_star.softmax'(0x5c9590a921e0) {
  %1 = "north_star.softmax"(%0#0) <{axis = 1 : i64}> : (!north_star.ns_tensor<1x128xf32,0>) -> !north_star.ns_tensor<1x128xf32,0>

} -> failure : pattern failed to match
//===-------------------------------------------===//

//===-------------------------------------------===//
Processing operation : 'func.func'(0x5c9590a104b0) {
} -> failure : pattern failed to match
//===-------------------------------------------===//

//===-------------------------------------------===//
Processing operation : 'north_star.softmax'(0x5c9590a0f8a0) {
  %3 = "north_star.softmax"(%1) <{axis = 1 : i64}> : (!north_star.ns_tensor<1x128xf32,0>) -> !north_star.ns_tensor<1x128xf32,0>

} -> failure : pattern failed to match
//===-------------------------------------------===//

//===-------------------------------------------===//
Processing operation : 'north_star.softmax'(0x5c9590aa72d0) {
  %4 = "north_star.softmax"(%2) <{axis = 1 : i64}> : (!north_star.ns_tensor<1x128xf32,1>) -> !north_star.ns_tensor<1x128xf32,1>

} -> failure : pattern failed to match
//===-------------------------------------------===//

//===-------------------------------------------===//
Processing operation : 'north_star.buffer_cast'(0x5c9590aa7410) {
  %5 = "north_star.buffer_cast"(%3, %4) <{distribute_attr = #north_star.DP<DP = 2 : 0, 1>}> : (!north_star.ns_tensor<1x128xf32,0>, !north_star.ns_tensor<1x128xf32,1>) -> !north_star.ns_tensor<2x128xf32,0>


  * Pattern mlir::north_star::{anonymous}::BufferCastOpFold : 'north_star.buffer_cast -> ()' {
Trying to match "mlir::north_star::{anonymous}::BufferCastOpFold"
"mlir::north_star::{anonymous}::BufferCastOpFold" result 0
  } -> failure : pattern failed to match
} -> failure : pattern failed to match
//===-------------------------------------------===//

//===-------------------------------------------===//
Processing operation : 'func.return'(0x5c9590a0ffc0) {
  "func.return"(%5) : (!north_star.ns_tensor<2x128xf32,0>) -> ()

} -> failure : pattern failed to match
//===-------------------------------------------===//
ImplicitTypeIDRegistry::lookupOrInsert(mlir::OpTrait::HasRecursiveMemoryEffects<mlir::TypeID::get() [with Trait = mlir::OpTrait::HasRecursiveMemoryEffects]::Empty>)

//===-------------------------------------------===//
Processing operation : 'func.func'(0x5c9590a104b0) {
} -> failure : pattern failed to match
//===-------------------------------------------===//

//===-------------------------------------------===//
Processing operation : 'north_star.buffer_cast'(0x5c9590aa6950) {
  %0:2 = "north_star.buffer_cast"(%arg0) <{distribute_attr = #north_star.DP<DP = 2 : 0, 1>}> : (!north_star.ns_tensor<2x128xf32,0>) -> (!north_star.ns_tensor<1x128xf32,0>, !north_star.ns_tensor<1x128xf32,1>)


  * Pattern mlir::north_star::{anonymous}::BufferCastOpFold : 'north_star.buffer_cast -> ()' {
Trying to match "mlir::north_star::{anonymous}::BufferCastOpFold"
"mlir::north_star::{anonymous}::BufferCastOpFold" result 0
  } -> failure : pattern failed to match
} -> failure : pattern failed to match
//===-------------------------------------------===//

//===-------------------------------------------===//
Processing operation : 'north_star.softmax'(0x5c9590a921e0) {
  %1 = "north_star.softmax"(%0#0) <{axis = 1 : i64}> : (!north_star.ns_tensor<1x128xf32,0>) -> !north_star.ns_tensor<1x128xf32,0>

} -> failure : pattern failed to match
//===-------------------------------------------===//

//===-------------------------------------------===//
Processing operation : 'north_star.softmax'(0x5c9590aa6380) {
  %2 = "north_star.softmax"(%0#1) <{axis = 1 : i64}> : (!north_star.ns_tensor<1x128xf32,1>) -> !north_star.ns_tensor<1x128xf32,1>

} -> failure : pattern failed to match
//===-------------------------------------------===//

//===-------------------------------------------===//
Processing operation : 'north_star.softmax'(0x5c9590a0f8a0) {
  %3 = "north_star.softmax"(%1) <{axis = 1 : i64}> : (!north_star.ns_tensor<1x128xf32,0>) -> !north_star.ns_tensor<1x128xf32,0>

} -> failure : pattern failed to match
//===-------------------------------------------===//

//===-------------------------------------------===//
Processing operation : 'north_star.softmax'(0x5c9590aa72d0) {
  %4 = "north_star.softmax"(%2) <{axis = 1 : i64}> : (!north_star.ns_tensor<1x128xf32,1>) -> !north_star.ns_tensor<1x128xf32,1>

} -> failure : pattern failed to match
//===-------------------------------------------===//

//===-------------------------------------------===//
Processing operation : 'north_star.buffer_cast'(0x5c9590aa7410) {
  %5 = "north_star.buffer_cast"(%3, %4) <{distribute_attr = #north_star.DP<DP = 2 : 0, 1>}> : (!north_star.ns_tensor<1x128xf32,0>, !north_star.ns_tensor<1x128xf32,1>) -> !north_star.ns_tensor<2x128xf32,0>


  * Pattern mlir::north_star::{anonymous}::BufferCastOpFold : 'north_star.buffer_cast -> ()' {
Trying to match "mlir::north_star::{anonymous}::BufferCastOpFold"
"mlir::north_star::{anonymous}::BufferCastOpFold" result 0
  } -> failure : pattern failed to match
} -> failure : pattern failed to match
//===-------------------------------------------===//

//===-------------------------------------------===//
Processing operation : 'func.return'(0x5c9590a0ffc0) {
  "func.return"(%5) : (!north_star.ns_tensor<2x128xf32,0>) -> ()

} -> failure : pattern failed to match
//===-------------------------------------------===//
// -----// IR Dump After Canonicalizer (canonicalize) //----- //
module @NorthStar {
  func.func @main(%arg0: !north_star.ns_tensor<2x128xf32,0>) -> !north_star.ns_tensor<2x128xf32,0> attributes {dp_attr = #north_star.DP<DP = 2 : 0, 1>, host_func} {
    %0:2 = "north_star.buffer_cast"(%arg0) <{distribute_attr = #north_star.DP<DP = 2 : 0, 1>}> : (!north_star.ns_tensor<2x128xf32,0>) -> (!north_star.ns_tensor<1x128xf32,0>, !north_star.ns_tensor<1x128xf32,1>)
    %1 = "north_star.softmax"(%0#0) <{axis = 1 : i64}> : (!north_star.ns_tensor<1x128xf32,0>) -> !north_star.ns_tensor<1x128xf32,0>
    %2 = "north_star.softmax"(%0#1) <{axis = 1 : i64}> : (!north_star.ns_tensor<1x128xf32,1>) -> !north_star.ns_tensor<1x128xf32,1>
    %3 = "north_star.softmax"(%1) <{axis = 1 : i64}> : (!north_star.ns_tensor<1x128xf32,0>) -> !north_star.ns_tensor<1x128xf32,0>
    %4 = "north_star.softmax"(%2) <{axis = 1 : i64}> : (!north_star.ns_tensor<1x128xf32,1>) -> !north_star.ns_tensor<1x128xf32,1>
    %5 = "north_star.buffer_cast"(%3, %4) <{distribute_attr = #north_star.DP<DP = 2 : 0, 1>}> : (!north_star.ns_tensor<1x128xf32,0>, !north_star.ns_tensor<1x128xf32,1>) -> !north_star.ns_tensor<2x128xf32,0>
    return %5 : !north_star.ns_tensor<2x128xf32,0>
  }
}


run in DeviceRegionFusionPass
root op: func.func

//===-------------------------------------------===//
Processing operation : 'func.return'(0x5c9590a0ffc0) {
  "func.return"(%5) : (!north_star.ns_tensor<2x128xf32,0>) -> ()

} -> failure : pattern failed to match
//===-------------------------------------------===//

//===-------------------------------------------===//
Processing operation : 'north_star.buffer_cast'(0x5c9590aa7410) {
  %5 = "north_star.buffer_cast"(%3, %4) <{distribute_attr = #north_star.DP<DP = 2 : 0, 1>}> : (!north_star.ns_tensor<1x128xf32,0>, !north_star.ns_tensor<1x128xf32,1>) -> !north_star.ns_tensor<2x128xf32,0>


  * Pattern {anonymous}::BufferCastOpDeviceRegionFusion : 'north_star.buffer_cast -> ()' {
Trying to match "{anonymous}::BufferCastOpDeviceRegionFusion"
"{anonymous}::BufferCastOpDeviceRegionFusion" result 0
  } -> failure : pattern failed to match
} -> failure : pattern failed to match
//===-------------------------------------------===//

//===-------------------------------------------===//
Processing operation : 'north_star.softmax'(0x5c9590aa72d0) {
  %4 = "north_star.softmax"(%2) <{axis = 1 : i64}> : (!north_star.ns_tensor<1x128xf32,1>) -> !north_star.ns_tensor<1x128xf32,1>

} -> failure : pattern failed to match
//===-------------------------------------------===//

//===-------------------------------------------===//
Processing operation : 'north_star.softmax'(0x5c9590a0f8a0) {
  %3 = "north_star.softmax"(%1) <{axis = 1 : i64}> : (!north_star.ns_tensor<1x128xf32,0>) -> !north_star.ns_tensor<1x128xf32,0>

} -> failure : pattern failed to match
//===-------------------------------------------===//

//===-------------------------------------------===//
Processing operation : 'north_star.softmax'(0x5c9590aa6380) {
  %2 = "north_star.softmax"(%0#1) <{axis = 1 : i64}> : (!north_star.ns_tensor<1x128xf32,1>) -> !north_star.ns_tensor<1x128xf32,1>

} -> failure : pattern failed to match
//===-------------------------------------------===//

//===-------------------------------------------===//
Processing operation : 'north_star.softmax'(0x5c9590a921e0) {
  %1 = "north_star.softmax"(%0#0) <{axis = 1 : i64}> : (!north_star.ns_tensor<1x128xf32,0>) -> !north_star.ns_tensor<1x128xf32,0>

} -> failure : pattern failed to match
//===-------------------------------------------===//

//===-------------------------------------------===//
Processing operation : 'north_star.buffer_cast'(0x5c9590aa6950) {
  %0:2 = "north_star.buffer_cast"(%arg0) <{distribute_attr = #north_star.DP<DP = 2 : 0, 1>}> : (!north_star.ns_tensor<2x128xf32,0>) -> (!north_star.ns_tensor<1x128xf32,0>, !north_star.ns_tensor<1x128xf32,1>)


  * Pattern {anonymous}::BufferCastOpDeviceRegionFusion : 'north_star.buffer_cast -> ()' {
Trying to match "{anonymous}::BufferCastOpDeviceRegionFusion"
ImplicitTypeIDRegistry::lookupOrInsert(mlir::north_star::detail::DeviceKernelOpGenericAdaptorBase::Properties)
    ** Insert  : 'north_star.device_kernel'(0x5c9590aa7360)
    ** Insert  : 'north_star.return'(0x5c9590aae360)
    ** Modified: 'north_star.buffer_cast'(0x5c9590aa7410)
    ** Insert  : 'north_star.device_kernel'(0x5c9590aae470)
    ** Insert  : 'north_star.return'(0x5c9590aae680)
    ** Modified: 'north_star.buffer_cast'(0x5c9590aa7410)
"{anonymous}::BufferCastOpDeviceRegionFusion" result 1
  } -> success : pattern applied successfully
// *** IR Dump After Pattern Application ***
ImplicitTypeIDRegistry::lookupOrInsert(mlir::FusionRegionOpInterfaces::Trait<mlir::TypeID::get() [with Trait = mlir::FusionRegionOpInterfaces::Trait]::Empty>)
func.func @main(%arg0: !north_star.ns_tensor<2x128xf32,0>) -> !north_star.ns_tensor<2x128xf32,0> attributes {dp_attr = #north_star.DP<DP = 2 : 0, 1>, host_func} {
  %0:2 = "north_star.buffer_cast"(%arg0) <{distribute_attr = #north_star.DP<DP = 2 : 0, 1>}> : (!north_star.ns_tensor<2x128xf32,0>) -> (!north_star.ns_tensor<1x128xf32,0>, !north_star.ns_tensor<1x128xf32,1>)
  %1 = "north_star.device_kernel"(%0#0) <{device_id = 0 : i64, sym_name = "softmax_1_128_softmax_1_128_fused_kernel"}> ({
  ^bb0(%arg1: !north_star.ns_tensor<1x128xf32,0>):
ImplicitTypeIDRegistry::lookupOrInsert(mlir::OpTrait::HasParent<mlir::north_star::DeviceKernelOp>::Impl<mlir::TypeID::get() [with Trait = mlir::OpTrait::HasParent<mlir::north_star::DeviceKernelOp>::Impl]::Empty>)
    %8 = "north_star.softmax"(%arg1) <{axis = 1 : i64}> : (!north_star.ns_tensor<1x128xf32,0>) -> !north_star.ns_tensor<1x128xf32,0>
    %9 = "north_star.softmax"(%8) <{axis = 1 : i64}> : (!north_star.ns_tensor<1x128xf32,0>) -> !north_star.ns_tensor<1x128xf32,0>
    north_star.return %9 : !north_star.ns_tensor<1x128xf32,0>
  }) : (!north_star.ns_tensor<1x128xf32,0>) -> !north_star.ns_tensor<1x128xf32,0>
  %2 = "north_star.device_kernel"(%0#1) <{device_id = 1 : i64, sym_name = "softmax_1_128_softmax_1_128_fused_kernel"}> ({
  ^bb0(%arg1: !north_star.ns_tensor<1x128xf32,1>):
    %8 = "north_star.softmax"(%arg1) <{axis = 1 : i64}> : (!north_star.ns_tensor<1x128xf32,1>) -> !north_star.ns_tensor<1x128xf32,1>
    %9 = "north_star.softmax"(%8) <{axis = 1 : i64}> : (!north_star.ns_tensor<1x128xf32,1>) -> !north_star.ns_tensor<1x128xf32,1>
    north_star.return %9 : !north_star.ns_tensor<1x128xf32,1>
  }) : (!north_star.ns_tensor<1x128xf32,1>) -> !north_star.ns_tensor<1x128xf32,1>
  %3 = "north_star.softmax"(%0#0) <{axis = 1 : i64}> : (!north_star.ns_tensor<1x128xf32,0>) -> !north_star.ns_tensor<1x128xf32,0>
  %4 = "north_star.softmax"(%0#1) <{axis = 1 : i64}> : (!north_star.ns_tensor<1x128xf32,1>) -> !north_star.ns_tensor<1x128xf32,1>
  %5 = "north_star.softmax"(%3) <{axis = 1 : i64}> : (!north_star.ns_tensor<1x128xf32,0>) -> !north_star.ns_tensor<1x128xf32,0>
  %6 = "north_star.softmax"(%4) <{axis = 1 : i64}> : (!north_star.ns_tensor<1x128xf32,1>) -> !north_star.ns_tensor<1x128xf32,1>
  %7 = "north_star.buffer_cast"(%1, %2) <{distribute_attr = #north_star.DP<DP = 2 : 0, 1>}> : (!north_star.ns_tensor<1x128xf32,0>, !north_star.ns_tensor<1x128xf32,1>) -> !north_star.ns_tensor<2x128xf32,0>
  return %7 : !north_star.ns_tensor<2x128xf32,0>
}


} -> success : pattern matched
//===-------------------------------------------===//

//===-------------------------------------------===//
Processing operation : 'north_star.return'(0x5c9590aae680) {
  "north_star.return"(%9) : (!north_star.ns_tensor<1x128xf32,1>) -> ()

} -> failure : pattern failed to match
//===-------------------------------------------===//

//===-------------------------------------------===//
Processing operation : 'north_star.device_kernel'(0x5c9590aae470) {
} -> failure : pattern failed to match
//===-------------------------------------------===//

//===-------------------------------------------===//
Processing operation : 'north_star.buffer_cast'(0x5c9590aa7410) {
  %7 = "north_star.buffer_cast"(%1, %2) <{distribute_attr = #north_star.DP<DP = 2 : 0, 1>}> : (!north_star.ns_tensor<1x128xf32,0>, !north_star.ns_tensor<1x128xf32,1>) -> !north_star.ns_tensor<2x128xf32,0>


  * Pattern {anonymous}::BufferCastOpDeviceRegionFusion : 'north_star.buffer_cast -> ()' {
Trying to match "{anonymous}::BufferCastOpDeviceRegionFusion"
"{anonymous}::BufferCastOpDeviceRegionFusion" result 0
  } -> failure : pattern failed to match
} -> failure : pattern failed to match
//===-------------------------------------------===//

//===-------------------------------------------===//
Processing operation : 'north_star.return'(0x5c9590aae360) {
  "north_star.return"(%11) : (!north_star.ns_tensor<1x128xf32,0>) -> ()

} -> failure : pattern failed to match
//===-------------------------------------------===//

//===-------------------------------------------===//
Processing operation : 'north_star.device_kernel'(0x5c9590aa7360) {
} -> failure : pattern failed to match
//===-------------------------------------------===//
** Erase   : 'north_star.softmax'(0x5c9590aa72d0)
** Erase   : 'north_star.softmax'(0x5c9590a0f8a0)
** Erase   : 'north_star.softmax'(0x5c9590aa6380)
** Erase   : 'north_star.softmax'(0x5c9590a921e0)

//===-------------------------------------------===//
Processing operation : 'func.return'(0x5c9590a0ffc0) {
  "func.return"(%3) : (!north_star.ns_tensor<2x128xf32,0>) -> ()

} -> failure : pattern failed to match
//===-------------------------------------------===//

//===-------------------------------------------===//
Processing operation : 'north_star.buffer_cast'(0x5c9590aa7410) {
  %3 = "north_star.buffer_cast"(%1, %2) <{distribute_attr = #north_star.DP<DP = 2 : 0, 1>}> : (!north_star.ns_tensor<1x128xf32,0>, !north_star.ns_tensor<1x128xf32,1>) -> !north_star.ns_tensor<2x128xf32,0>


  * Pattern {anonymous}::BufferCastOpDeviceRegionFusion : 'north_star.buffer_cast -> ()' {
Trying to match "{anonymous}::BufferCastOpDeviceRegionFusion"
"{anonymous}::BufferCastOpDeviceRegionFusion" result 0
  } -> failure : pattern failed to match
} -> failure : pattern failed to match
//===-------------------------------------------===//

//===-------------------------------------------===//
Processing operation : 'north_star.return'(0x5c9590aae680) {
  "north_star.return"(%5) : (!north_star.ns_tensor<1x128xf32,1>) -> ()

} -> failure : pattern failed to match
//===-------------------------------------------===//

//===-------------------------------------------===//
Processing operation : 'north_star.softmax'(0x5c9590aae600) {
  %5 = "north_star.softmax"(%4) <{axis = 1 : i64}> : (!north_star.ns_tensor<1x128xf32,1>) -> !north_star.ns_tensor<1x128xf32,1>

} -> failure : pattern failed to match
//===-------------------------------------------===//

//===-------------------------------------------===//
Processing operation : 'north_star.device_kernel'(0x5c9590aae470) {
} -> failure : pattern failed to match
//===-------------------------------------------===//

//===-------------------------------------------===//
Processing operation : 'north_star.softmax'(0x5c9590aae570) {
  %4 = "north_star.softmax"(%arg1) <{axis = 1 : i64}> : (!north_star.ns_tensor<1x128xf32,1>) -> !north_star.ns_tensor<1x128xf32,1>

} -> failure : pattern failed to match
//===-------------------------------------------===//

//===-------------------------------------------===//
Processing operation : 'north_star.return'(0x5c9590aae360) {
  "north_star.return"(%7) : (!north_star.ns_tensor<1x128xf32,0>) -> ()

} -> failure : pattern failed to match
//===-------------------------------------------===//

//===-------------------------------------------===//
Processing operation : 'north_star.softmax'(0x5c9590aae2a0) {
  %7 = "north_star.softmax"(%6) <{axis = 1 : i64}> : (!north_star.ns_tensor<1x128xf32,0>) -> !north_star.ns_tensor<1x128xf32,0>

} -> failure : pattern failed to match
//===-------------------------------------------===//

//===-------------------------------------------===//
Processing operation : 'north_star.device_kernel'(0x5c9590aa7360) {
} -> failure : pattern failed to match
//===-------------------------------------------===//

//===-------------------------------------------===//
Processing operation : 'north_star.softmax'(0x5c9590a0fdf0) {
  %6 = "north_star.softmax"(%arg2) <{axis = 1 : i64}> : (!north_star.ns_tensor<1x128xf32,0>) -> !north_star.ns_tensor<1x128xf32,0>

} -> failure : pattern failed to match
//===-------------------------------------------===//

//===-------------------------------------------===//
Processing operation : 'north_star.buffer_cast'(0x5c9590aa6950) {
  %0:2 = "north_star.buffer_cast"(%arg0) <{distribute_attr = #north_star.DP<DP = 2 : 0, 1>}> : (!north_star.ns_tensor<2x128xf32,0>) -> (!north_star.ns_tensor<1x128xf32,0>, !north_star.ns_tensor<1x128xf32,1>)


  * Pattern {anonymous}::BufferCastOpDeviceRegionFusion : 'north_star.buffer_cast -> ()' {
Trying to match "{anonymous}::BufferCastOpDeviceRegionFusion"
"{anonymous}::BufferCastOpDeviceRegionFusion" result 0
  } -> failure : pattern failed to match
} -> failure : pattern failed to match
//===-------------------------------------------===//
region has changed: true
run out: DeviceRegionFusionPass
// -----// IR Dump After DeviceRegionFusionPass (device-region-fusion) //----- //
func.func @main(%arg0: !north_star.ns_tensor<2x128xf32,0>) -> !north_star.ns_tensor<2x128xf32,0> attributes {dp_attr = #north_star.DP<DP = 2 : 0, 1>, host_func} {
  %0:2 = "north_star.buffer_cast"(%arg0) <{distribute_attr = #north_star.DP<DP = 2 : 0, 1>}> : (!north_star.ns_tensor<2x128xf32,0>) -> (!north_star.ns_tensor<1x128xf32,0>, !north_star.ns_tensor<1x128xf32,1>)
  %1 = "north_star.device_kernel"(%0#0) <{device_id = 0 : i64, sym_name = "softmax_1_128_softmax_1_128_fused_kernel"}> ({
  ^bb0(%arg1: !north_star.ns_tensor<1x128xf32,0>):
    %4 = "north_star.softmax"(%arg1) <{axis = 1 : i64}> : (!north_star.ns_tensor<1x128xf32,0>) -> !north_star.ns_tensor<1x128xf32,0>
    %5 = "north_star.softmax"(%4) <{axis = 1 : i64}> : (!north_star.ns_tensor<1x128xf32,0>) -> !north_star.ns_tensor<1x128xf32,0>
    north_star.return %5 : !north_star.ns_tensor<1x128xf32,0>
  }) : (!north_star.ns_tensor<1x128xf32,0>) -> !north_star.ns_tensor<1x128xf32,0>
  %2 = "north_star.device_kernel"(%0#1) <{device_id = 1 : i64, sym_name = "softmax_1_128_softmax_1_128_fused_kernel"}> ({
  ^bb0(%arg1: !north_star.ns_tensor<1x128xf32,1>):
    %4 = "north_star.softmax"(%arg1) <{axis = 1 : i64}> : (!north_star.ns_tensor<1x128xf32,1>) -> !north_star.ns_tensor<1x128xf32,1>
    %5 = "north_star.softmax"(%4) <{axis = 1 : i64}> : (!north_star.ns_tensor<1x128xf32,1>) -> !north_star.ns_tensor<1x128xf32,1>
    north_star.return %5 : !north_star.ns_tensor<1x128xf32,1>
  }) : (!north_star.ns_tensor<1x128xf32,1>) -> !north_star.ns_tensor<1x128xf32,1>
  %3 = "north_star.buffer_cast"(%1, %2) <{distribute_attr = #north_star.DP<DP = 2 : 0, 1>}> : (!north_star.ns_tensor<1x128xf32,0>, !north_star.ns_tensor<1x128xf32,1>) -> !north_star.ns_tensor<2x128xf32,0>
  return %3 : !north_star.ns_tensor<2x128xf32,0>
}

run in EliminateBufferCastPass

//===-------------------------------------------===//
Processing operation : 'func.return'(0x5c9590a0ffc0) {
  "func.return"(%3) : (!north_star.ns_tensor<2x128xf32,0>) -> ()

} -> failure : pattern failed to match
//===-------------------------------------------===//

//===-------------------------------------------===//
Processing operation : 'north_star.buffer_cast'(0x5c9590aa7410) {
  %3 = "north_star.buffer_cast"(%1, %2) <{distribute_attr = #north_star.DP<DP = 2 : 0, 1>}> : (!north_star.ns_tensor<1x128xf32,0>, !north_star.ns_tensor<1x128xf32,1>) -> !north_star.ns_tensor<2x128xf32,0>


  * Pattern {anonymous}::BufferCastOpToCommunicationPattern : 'north_star.buffer_cast -> ()' {
Trying to match "{anonymous}::BufferCastOpToCommunicationPattern"
    ** Insert  : 'north_star.buffer'(0x5c9590aaf710)
ImplicitTypeIDRegistry::lookupOrInsert(mlir::OpTrait::OneTypedResult<mlir::RankedTensorType>::Impl<mlir::TypeID::get() [with Trait = mlir::OpTrait::OneTypedResult<mlir::RankedTensorType>::Impl]::Empty>)
ImplicitTypeIDRegistry::lookupOrInsert(mlir::ReifyRankedShapedTypeOpInterface::Trait<mlir::TypeID::get() [with Trait = mlir::ReifyRankedShapedTypeOpInterface::Trait]::Empty>)
    ** Insert  : 'tensor.empty'(0x5c9590aae710)
ImplicitTypeIDRegistry::lookupOrInsert(mlir::north_star::detail::TensorToNSTensorOpGenericAdaptorBase::Properties)
    ** Insert  : 'north_star.tensor_to_ns_tensor'(0x5c9590a921e0)
    ** Insert  : 'north_star.buffer'(0x5c9590aa6380)
    ** Insert  : 'north_star.gather'(0x5c9590a84f40)
ImplicitTypeIDRegistry::lookupOrInsert(mlir::north_star::detail::GetTensorOpGenericAdaptorBase::Properties)
    ** Insert  : 'north_star.get_tensor'(0x5c9590a0f8a0)
    ** Replace : 'north_star.buffer_cast'(0x5c9590aa7410)
    ** Modified: 'func.return'(0x5c9590a0ffc0)
"{anonymous}::BufferCastOpToCommunicationPattern" result 1
  } -> success : pattern applied successfully
// *** IR Dump After Pattern Application ***
func.func @main(%arg0: !north_star.ns_tensor<2x128xf32,0>) -> !north_star.ns_tensor<2x128xf32,0> attributes {dp_attr = #north_star.DP<DP = 2 : 0, 1>, host_func} {
  %0:2 = "north_star.buffer_cast"(%arg0) <{distribute_attr = #north_star.DP<DP = 2 : 0, 1>}> : (!north_star.ns_tensor<2x128xf32,0>) -> (!north_star.ns_tensor<1x128xf32,0>, !north_star.ns_tensor<1x128xf32,1>)
  %1 = "north_star.device_kernel"(%0#0) <{device_id = 0 : i64, sym_name = "softmax_1_128_softmax_1_128_fused_kernel"}> ({
  ^bb0(%arg1: !north_star.ns_tensor<1x128xf32,0>):
    %9 = "north_star.softmax"(%arg1) <{axis = 1 : i64}> : (!north_star.ns_tensor<1x128xf32,0>) -> !north_star.ns_tensor<1x128xf32,0>
    %10 = "north_star.softmax"(%9) <{axis = 1 : i64}> : (!north_star.ns_tensor<1x128xf32,0>) -> !north_star.ns_tensor<1x128xf32,0>
    north_star.return %10 : !north_star.ns_tensor<1x128xf32,0>
  }) : (!north_star.ns_tensor<1x128xf32,0>) -> !north_star.ns_tensor<1x128xf32,0>
  %2 = "north_star.device_kernel"(%0#1) <{device_id = 1 : i64, sym_name = "softmax_1_128_softmax_1_128_fused_kernel"}> ({
  ^bb0(%arg1: !north_star.ns_tensor<1x128xf32,1>):
    %9 = "north_star.softmax"(%arg1) <{axis = 1 : i64}> : (!north_star.ns_tensor<1x128xf32,1>) -> !north_star.ns_tensor<1x128xf32,1>
    %10 = "north_star.softmax"(%9) <{axis = 1 : i64}> : (!north_star.ns_tensor<1x128xf32,1>) -> !north_star.ns_tensor<1x128xf32,1>
    north_star.return %10 : !north_star.ns_tensor<1x128xf32,1>
  }) : (!north_star.ns_tensor<1x128xf32,1>) -> !north_star.ns_tensor<1x128xf32,1>
  %3 = "north_star.buffer"(%1, %2) : (!north_star.ns_tensor<1x128xf32,0>, !north_star.ns_tensor<1x128xf32,1>) -> !north_star.buffer<0, 1>
  %4 = tensor.empty() {device_id = 0 : i64} : tensor<2x128xf32>
  %5 = "north_star.tensor_to_ns_tensor"(%4) <{device_id = 0 : i64}> : (tensor<2x128xf32>) -> !north_star.ns_tensor<2x128xf32,0>
  %6 = "north_star.buffer"(%5) : (!north_star.ns_tensor<2x128xf32,0>) -> !north_star.buffer<0>
  "north_star.gather"(%3, %6) : (!north_star.buffer<0, 1>, !north_star.buffer<0>) -> ()
  %7 = "north_star.get_tensor"(%6) <{device_id = 0 : i64}> : (!north_star.buffer<0>) -> !north_star.ns_tensor<2x128xf32,0>
  %8 = "north_star.buffer_cast"(%1, %2) <{distribute_attr = #north_star.DP<DP = 2 : 0, 1>}> : (!north_star.ns_tensor<1x128xf32,0>, !north_star.ns_tensor<1x128xf32,1>) -> !north_star.ns_tensor<2x128xf32,0>
  return %7 : !north_star.ns_tensor<2x128xf32,0>
}


} -> success : pattern matched
//===-------------------------------------------===//

//===-------------------------------------------===//
Processing operation : 'func.return'(0x5c9590a0ffc0) {
  "func.return"(%7) : (!north_star.ns_tensor<2x128xf32,0>) -> ()

ImplicitTypeIDRegistry::lookupOrInsert(mlir::BuiltinFunctionOpInterface::Trait<mlir::TypeID::get() [with Trait = mlir::BuiltinFunctionOpInterface::Trait]::Empty>)
} -> failure : pattern failed to match
//===-------------------------------------------===//

//===-------------------------------------------===//
Processing operation : 'north_star.get_tensor'(0x5c9590a0f8a0) {
  %7 = "north_star.get_tensor"(%6) <{device_id = 0 : i64}> : (!north_star.buffer<0>) -> !north_star.ns_tensor<2x128xf32,0>

} -> failure : pattern failed to match
//===-------------------------------------------===//

//===-------------------------------------------===//
Processing operation : 'north_star.gather'(0x5c9590a84f40) {
  "north_star.gather"(%3, %6) : (!north_star.buffer<0, 1>, !north_star.buffer<0>) -> ()

ImplicitTypeIDRegistry::lookupOrInsert(mlir::OpTrait::NOperands<2>::Impl<mlir::TypeID::get() [with Trait = mlir::OpTrait::NOperands<2>::Impl]::Empty>)
} -> failure : pattern failed to match
//===-------------------------------------------===//

//===-------------------------------------------===//
Processing operation : 'north_star.buffer'(0x5c9590aa6380) {
  %6 = "north_star.buffer"(%5) : (!north_star.ns_tensor<2x128xf32,0>) -> !north_star.buffer<0>

} -> failure : pattern failed to match
//===-------------------------------------------===//

//===-------------------------------------------===//
Processing operation : 'north_star.tensor_to_ns_tensor'(0x5c9590a921e0) {
  %5 = "north_star.tensor_to_ns_tensor"(%4) <{device_id = 0 : i64}> : (tensor<2x128xf32>) -> !north_star.ns_tensor<2x128xf32,0>

} -> failure : pattern failed to match
//===-------------------------------------------===//

//===-------------------------------------------===//
Processing operation : 'tensor.empty'(0x5c9590aae710) {
  %4 = "tensor.empty"() {device_id = 0 : i64} : () -> tensor<2x128xf32>

} -> failure : pattern failed to match
//===-------------------------------------------===//

//===-------------------------------------------===//
Processing operation : 'north_star.buffer'(0x5c9590aaf710) {
  %3 = "north_star.buffer"(%1, %2) : (!north_star.ns_tensor<1x128xf32,0>, !north_star.ns_tensor<1x128xf32,1>) -> !north_star.buffer<0, 1>

} -> failure : pattern failed to match
//===-------------------------------------------===//

//===-------------------------------------------===//
Processing operation : 'north_star.return'(0x5c9590aae680) {
  "north_star.return"(%10) : (!north_star.ns_tensor<1x128xf32,1>) -> ()

} -> failure : pattern failed to match
//===-------------------------------------------===//

//===-------------------------------------------===//
Processing operation : 'north_star.softmax'(0x5c9590aae600) {
  %10 = "north_star.softmax"(%9) <{axis = 1 : i64}> : (!north_star.ns_tensor<1x128xf32,1>) -> !north_star.ns_tensor<1x128xf32,1>

} -> failure : pattern failed to match
//===-------------------------------------------===//

//===-------------------------------------------===//
Processing operation : 'north_star.device_kernel'(0x5c9590aae470) {
} -> failure : pattern failed to match
//===-------------------------------------------===//

//===-------------------------------------------===//
Processing operation : 'north_star.softmax'(0x5c9590aae570) {
  %9 = "north_star.softmax"(%arg1) <{axis = 1 : i64}> : (!north_star.ns_tensor<1x128xf32,1>) -> !north_star.ns_tensor<1x128xf32,1>

} -> failure : pattern failed to match
//===-------------------------------------------===//

//===-------------------------------------------===//
Processing operation : 'north_star.return'(0x5c9590aae360) {
  "north_star.return"(%12) : (!north_star.ns_tensor<1x128xf32,0>) -> ()

} -> failure : pattern failed to match
//===-------------------------------------------===//

//===-------------------------------------------===//
Processing operation : 'north_star.softmax'(0x5c9590aae2a0) {
  %12 = "north_star.softmax"(%11) <{axis = 1 : i64}> : (!north_star.ns_tensor<1x128xf32,0>) -> !north_star.ns_tensor<1x128xf32,0>

} -> failure : pattern failed to match
//===-------------------------------------------===//

//===-------------------------------------------===//
Processing operation : 'north_star.device_kernel'(0x5c9590aa7360) {
} -> failure : pattern failed to match
//===-------------------------------------------===//

//===-------------------------------------------===//
Processing operation : 'north_star.softmax'(0x5c9590a0fdf0) {
  %11 = "north_star.softmax"(%arg2) <{axis = 1 : i64}> : (!north_star.ns_tensor<1x128xf32,0>) -> !north_star.ns_tensor<1x128xf32,0>

} -> failure : pattern failed to match
//===-------------------------------------------===//

//===-------------------------------------------===//
Processing operation : 'func.func'(0x5c9590a104b0) {
} -> failure : pattern failed to match
//===-------------------------------------------===//

//===-------------------------------------------===//
Processing operation : 'north_star.buffer_cast'(0x5c9590aa6950) {
  %0:2 = "north_star.buffer_cast"(%arg0) <{distribute_attr = #north_star.DP<DP = 2 : 0, 1>}> : (!north_star.ns_tensor<2x128xf32,0>) -> (!north_star.ns_tensor<1x128xf32,0>, !north_star.ns_tensor<1x128xf32,1>)


  * Pattern {anonymous}::BufferCastOpToCommunicationPattern : 'north_star.buffer_cast -> ()' {
Trying to match "{anonymous}::BufferCastOpToCommunicationPattern"
    ** Insert  : 'north_star.buffer'(0x5c9590aa72d0)
    ** Insert  : 'tensor.empty'(0x5c9590a9a430)
    ** Insert  : 'north_star.tensor_to_ns_tensor'(0x5c9590aae780)
    ** Insert  : 'tensor.empty'(0x5c9590a9a760)
    ** Insert  : 'north_star.tensor_to_ns_tensor'(0x5c9590aabe30)
    ** Insert  : 'north_star.buffer'(0x5c9590aabec0)
    ** Insert  : 'north_star.scatter'(0x5c9590a9a650)
    ** Insert  : 'north_star.get_tensor'(0x5c9590aabf70)
    ** Insert  : 'north_star.get_tensor'(0x5c9590aac000)
    ** Replace : 'north_star.buffer_cast'(0x5c9590aa6950)
    ** Modified: 'north_star.device_kernel'(0x5c9590aa7360)
    ** Modified: 'north_star.device_kernel'(0x5c9590aae470)
"{anonymous}::BufferCastOpToCommunicationPattern" result 1
  } -> success : pattern applied successfully
// *** IR Dump After Pattern Application ***
func.func @main(%arg0: !north_star.ns_tensor<2x128xf32,0>) -> !north_star.ns_tensor<2x128xf32,0> attributes {dp_attr = #north_star.DP<DP = 2 : 0, 1>, host_func} {
  %0 = "north_star.buffer"(%arg0) : (!north_star.ns_tensor<2x128xf32,0>) -> !north_star.buffer<0>
  %1 = tensor.empty() {device_id = 0 : i64} : tensor<1x128xf32>
  %2 = "north_star.tensor_to_ns_tensor"(%1) <{device_id = 0 : i64}> : (tensor<1x128xf32>) -> !north_star.ns_tensor<1x128xf32,0>
  %3 = tensor.empty() {device_id = 1 : i64} : tensor<1x128xf32>
  %4 = "north_star.tensor_to_ns_tensor"(%3) <{device_id = 1 : i64}> : (tensor<1x128xf32>) -> !north_star.ns_tensor<1x128xf32,1>
  %5 = "north_star.buffer"(%2, %4) : (!north_star.ns_tensor<1x128xf32,0>, !north_star.ns_tensor<1x128xf32,1>) -> !north_star.buffer<0, 1>
  "north_star.scatter"(%0, %5) : (!north_star.buffer<0>, !north_star.buffer<0, 1>) -> ()
  %6 = "north_star.get_tensor"(%5) <{device_id = 0 : i64}> : (!north_star.buffer<0, 1>) -> !north_star.ns_tensor<1x128xf32,0>
  %7 = "north_star.get_tensor"(%5) <{device_id = 1 : i64}> : (!north_star.buffer<0, 1>) -> !north_star.ns_tensor<1x128xf32,1>
  %8:2 = "north_star.buffer_cast"(%arg0) <{distribute_attr = #north_star.DP<DP = 2 : 0, 1>}> : (!north_star.ns_tensor<2x128xf32,0>) -> (!north_star.ns_tensor<1x128xf32,0>, !north_star.ns_tensor<1x128xf32,1>)
  %9 = "north_star.device_kernel"(%6) <{device_id = 0 : i64, sym_name = "softmax_1_128_softmax_1_128_fused_kernel"}> ({
  ^bb0(%arg1: !north_star.ns_tensor<1x128xf32,0>):
    %17 = "north_star.softmax"(%arg1) <{axis = 1 : i64}> : (!north_star.ns_tensor<1x128xf32,0>) -> !north_star.ns_tensor<1x128xf32,0>
    %18 = "north_star.softmax"(%17) <{axis = 1 : i64}> : (!north_star.ns_tensor<1x128xf32,0>) -> !north_star.ns_tensor<1x128xf32,0>
    north_star.return %18 : !north_star.ns_tensor<1x128xf32,0>
  }) : (!north_star.ns_tensor<1x128xf32,0>) -> !north_star.ns_tensor<1x128xf32,0>
  %10 = "north_star.device_kernel"(%7) <{device_id = 1 : i64, sym_name = "softmax_1_128_softmax_1_128_fused_kernel"}> ({
  ^bb0(%arg1: !north_star.ns_tensor<1x128xf32,1>):
    %17 = "north_star.softmax"(%arg1) <{axis = 1 : i64}> : (!north_star.ns_tensor<1x128xf32,1>) -> !north_star.ns_tensor<1x128xf32,1>
    %18 = "north_star.softmax"(%17) <{axis = 1 : i64}> : (!north_star.ns_tensor<1x128xf32,1>) -> !north_star.ns_tensor<1x128xf32,1>
    north_star.return %18 : !north_star.ns_tensor<1x128xf32,1>
  }) : (!north_star.ns_tensor<1x128xf32,1>) -> !north_star.ns_tensor<1x128xf32,1>
  %11 = "north_star.buffer"(%9, %10) : (!north_star.ns_tensor<1x128xf32,0>, !north_star.ns_tensor<1x128xf32,1>) -> !north_star.buffer<0, 1>
  %12 = tensor.empty() {device_id = 0 : i64} : tensor<2x128xf32>
  %13 = "north_star.tensor_to_ns_tensor"(%12) <{device_id = 0 : i64}> : (tensor<2x128xf32>) -> !north_star.ns_tensor<2x128xf32,0>
  %14 = "north_star.buffer"(%13) : (!north_star.ns_tensor<2x128xf32,0>) -> !north_star.buffer<0>
  "north_star.gather"(%11, %14) : (!north_star.buffer<0, 1>, !north_star.buffer<0>) -> ()
  %15 = "north_star.get_tensor"(%14) <{device_id = 0 : i64}> : (!north_star.buffer<0>) -> !north_star.ns_tensor<2x128xf32,0>
  %16 = "north_star.buffer_cast"(%9, %10) <{distribute_attr = #north_star.DP<DP = 2 : 0, 1>}> : (!north_star.ns_tensor<1x128xf32,0>, !north_star.ns_tensor<1x128xf32,1>) -> !north_star.ns_tensor<2x128xf32,0>
  return %15 : !north_star.ns_tensor<2x128xf32,0>
}


} -> success : pattern matched
//===-------------------------------------------===//

//===-------------------------------------------===//
Processing operation : 'north_star.device_kernel'(0x5c9590aae470) {
} -> failure : pattern failed to match
//===-------------------------------------------===//

//===-------------------------------------------===//
Processing operation : 'north_star.device_kernel'(0x5c9590aa7360) {
} -> failure : pattern failed to match
//===-------------------------------------------===//

//===-------------------------------------------===//
Processing operation : 'north_star.get_tensor'(0x5c9590aac000) {
  %7 = "north_star.get_tensor"(%5) <{device_id = 1 : i64}> : (!north_star.buffer<0, 1>) -> !north_star.ns_tensor<1x128xf32,1>

} -> failure : pattern failed to match
//===-------------------------------------------===//

//===-------------------------------------------===//
Processing operation : 'north_star.get_tensor'(0x5c9590aabf70) {
  %6 = "north_star.get_tensor"(%5) <{device_id = 0 : i64}> : (!north_star.buffer<0, 1>) -> !north_star.ns_tensor<1x128xf32,0>

} -> failure : pattern failed to match
//===-------------------------------------------===//

//===-------------------------------------------===//
Processing operation : 'north_star.scatter'(0x5c9590a9a650) {
  "north_star.scatter"(%0, %5) : (!north_star.buffer<0>, !north_star.buffer<0, 1>) -> ()

} -> failure : pattern failed to match
//===-------------------------------------------===//

//===-------------------------------------------===//
Processing operation : 'north_star.buffer'(0x5c9590aabec0) {
  %5 = "north_star.buffer"(%2, %4) : (!north_star.ns_tensor<1x128xf32,0>, !north_star.ns_tensor<1x128xf32,1>) -> !north_star.buffer<0, 1>

} -> failure : pattern failed to match
//===-------------------------------------------===//

//===-------------------------------------------===//
Processing operation : 'north_star.tensor_to_ns_tensor'(0x5c9590aabe30) {
  %4 = "north_star.tensor_to_ns_tensor"(%3) <{device_id = 1 : i64}> : (tensor<1x128xf32>) -> !north_star.ns_tensor<1x128xf32,1>

} -> failure : pattern failed to match
//===-------------------------------------------===//

//===-------------------------------------------===//
Processing operation : 'tensor.empty'(0x5c9590a9a760) {
  %3 = "tensor.empty"() {device_id = 1 : i64} : () -> tensor<1x128xf32>

} -> failure : pattern failed to match
//===-------------------------------------------===//

//===-------------------------------------------===//
Processing operation : 'north_star.tensor_to_ns_tensor'(0x5c9590aae780) {
  %2 = "north_star.tensor_to_ns_tensor"(%1) <{device_id = 0 : i64}> : (tensor<1x128xf32>) -> !north_star.ns_tensor<1x128xf32,0>

} -> failure : pattern failed to match
//===-------------------------------------------===//

//===-------------------------------------------===//
Processing operation : 'tensor.empty'(0x5c9590a9a430) {
  %1 = "tensor.empty"() {device_id = 0 : i64} : () -> tensor<1x128xf32>

} -> failure : pattern failed to match
//===-------------------------------------------===//

//===-------------------------------------------===//
Processing operation : 'func.func'(0x5c9590a104b0) {
} -> failure : pattern failed to match
//===-------------------------------------------===//

//===-------------------------------------------===//
Processing operation : 'north_star.buffer'(0x5c9590aa72d0) {
  %0 = "north_star.buffer"(%arg0) : (!north_star.ns_tensor<2x128xf32,0>) -> !north_star.buffer<0>

} -> failure : pattern failed to match
//===-------------------------------------------===//
** Erase   : 'north_star.buffer_cast'(0x5c9590aa7410)
** Erase   : 'north_star.buffer_cast'(0x5c9590aa6950)

//===-------------------------------------------===//
Processing operation : 'func.return'(0x5c9590a0ffc0) {
  "func.return"(%14) : (!north_star.ns_tensor<2x128xf32,0>) -> ()

} -> failure : pattern failed to match
//===-------------------------------------------===//

//===-------------------------------------------===//
Processing operation : 'north_star.get_tensor'(0x5c9590a0f8a0) {
  %14 = "north_star.get_tensor"(%13) <{device_id = 0 : i64}> : (!north_star.buffer<0>) -> !north_star.ns_tensor<2x128xf32,0>

} -> failure : pattern failed to match
//===-------------------------------------------===//

//===-------------------------------------------===//
Processing operation : 'north_star.gather'(0x5c9590a84f40) {
  "north_star.gather"(%10, %13) : (!north_star.buffer<0, 1>, !north_star.buffer<0>) -> ()

} -> failure : pattern failed to match
//===-------------------------------------------===//

//===-------------------------------------------===//
Processing operation : 'north_star.buffer'(0x5c9590aa6380) {
  %13 = "north_star.buffer"(%12) : (!north_star.ns_tensor<2x128xf32,0>) -> !north_star.buffer<0>

} -> failure : pattern failed to match
//===-------------------------------------------===//

//===-------------------------------------------===//
Processing operation : 'north_star.tensor_to_ns_tensor'(0x5c9590a921e0) {
  %12 = "north_star.tensor_to_ns_tensor"(%11) <{device_id = 0 : i64}> : (tensor<2x128xf32>) -> !north_star.ns_tensor<2x128xf32,0>

} -> failure : pattern failed to match
//===-------------------------------------------===//

//===-------------------------------------------===//
Processing operation : 'tensor.empty'(0x5c9590aae710) {
  %11 = "tensor.empty"() {device_id = 0 : i64} : () -> tensor<2x128xf32>

} -> failure : pattern failed to match
//===-------------------------------------------===//

//===-------------------------------------------===//
Processing operation : 'north_star.buffer'(0x5c9590aaf710) {
  %10 = "north_star.buffer"(%8, %9) : (!north_star.ns_tensor<1x128xf32,0>, !north_star.ns_tensor<1x128xf32,1>) -> !north_star.buffer<0, 1>

} -> failure : pattern failed to match
//===-------------------------------------------===//

//===-------------------------------------------===//
Processing operation : 'north_star.return'(0x5c9590aae680) {
  "north_star.return"(%16) : (!north_star.ns_tensor<1x128xf32,1>) -> ()

} -> failure : pattern failed to match
//===-------------------------------------------===//

//===-------------------------------------------===//
Processing operation : 'north_star.softmax'(0x5c9590aae600) {
  %16 = "north_star.softmax"(%15) <{axis = 1 : i64}> : (!north_star.ns_tensor<1x128xf32,1>) -> !north_star.ns_tensor<1x128xf32,1>

} -> failure : pattern failed to match
//===-------------------------------------------===//

//===-------------------------------------------===//
Processing operation : 'north_star.device_kernel'(0x5c9590aae470) {
} -> failure : pattern failed to match
//===-------------------------------------------===//

//===-------------------------------------------===//
Processing operation : 'north_star.softmax'(0x5c9590aae570) {
  %15 = "north_star.softmax"(%arg1) <{axis = 1 : i64}> : (!north_star.ns_tensor<1x128xf32,1>) -> !north_star.ns_tensor<1x128xf32,1>

} -> failure : pattern failed to match
//===-------------------------------------------===//

//===-------------------------------------------===//
Processing operation : 'north_star.return'(0x5c9590aae360) {
  "north_star.return"(%18) : (!north_star.ns_tensor<1x128xf32,0>) -> ()

} -> failure : pattern failed to match
//===-------------------------------------------===//

//===-------------------------------------------===//
Processing operation : 'north_star.softmax'(0x5c9590aae2a0) {
  %18 = "north_star.softmax"(%17) <{axis = 1 : i64}> : (!north_star.ns_tensor<1x128xf32,0>) -> !north_star.ns_tensor<1x128xf32,0>

} -> failure : pattern failed to match
//===-------------------------------------------===//

//===-------------------------------------------===//
Processing operation : 'north_star.device_kernel'(0x5c9590aa7360) {
} -> failure : pattern failed to match
//===-------------------------------------------===//

//===-------------------------------------------===//
Processing operation : 'north_star.softmax'(0x5c9590a0fdf0) {
  %17 = "north_star.softmax"(%arg2) <{axis = 1 : i64}> : (!north_star.ns_tensor<1x128xf32,0>) -> !north_star.ns_tensor<1x128xf32,0>

} -> failure : pattern failed to match
//===-------------------------------------------===//

//===-------------------------------------------===//
Processing operation : 'north_star.get_tensor'(0x5c9590aac000) {
  %7 = "north_star.get_tensor"(%5) <{device_id = 1 : i64}> : (!north_star.buffer<0, 1>) -> !north_star.ns_tensor<1x128xf32,1>

} -> failure : pattern failed to match
//===-------------------------------------------===//

//===-------------------------------------------===//
Processing operation : 'north_star.get_tensor'(0x5c9590aabf70) {
  %6 = "north_star.get_tensor"(%5) <{device_id = 0 : i64}> : (!north_star.buffer<0, 1>) -> !north_star.ns_tensor<1x128xf32,0>

} -> failure : pattern failed to match
//===-------------------------------------------===//

//===-------------------------------------------===//
Processing operation : 'north_star.scatter'(0x5c9590a9a650) {
  "north_star.scatter"(%0, %5) : (!north_star.buffer<0>, !north_star.buffer<0, 1>) -> ()

} -> failure : pattern failed to match
//===-------------------------------------------===//

//===-------------------------------------------===//
Processing operation : 'north_star.buffer'(0x5c9590aabec0) {
  %5 = "north_star.buffer"(%2, %4) : (!north_star.ns_tensor<1x128xf32,0>, !north_star.ns_tensor<1x128xf32,1>) -> !north_star.buffer<0, 1>

} -> failure : pattern failed to match
//===-------------------------------------------===//

//===-------------------------------------------===//
Processing operation : 'north_star.tensor_to_ns_tensor'(0x5c9590aabe30) {
  %4 = "north_star.tensor_to_ns_tensor"(%3) <{device_id = 1 : i64}> : (tensor<1x128xf32>) -> !north_star.ns_tensor<1x128xf32,1>

} -> failure : pattern failed to match
//===-------------------------------------------===//

//===-------------------------------------------===//
Processing operation : 'tensor.empty'(0x5c9590a9a760) {
  %3 = "tensor.empty"() {device_id = 1 : i64} : () -> tensor<1x128xf32>

} -> failure : pattern failed to match
//===-------------------------------------------===//

//===-------------------------------------------===//
Processing operation : 'north_star.tensor_to_ns_tensor'(0x5c9590aae780) {
  %2 = "north_star.tensor_to_ns_tensor"(%1) <{device_id = 0 : i64}> : (tensor<1x128xf32>) -> !north_star.ns_tensor<1x128xf32,0>

} -> failure : pattern failed to match
//===-------------------------------------------===//

//===-------------------------------------------===//
Processing operation : 'tensor.empty'(0x5c9590a9a430) {
  %1 = "tensor.empty"() {device_id = 0 : i64} : () -> tensor<1x128xf32>

} -> failure : pattern failed to match
//===-------------------------------------------===//

//===-------------------------------------------===//
Processing operation : 'func.func'(0x5c9590a104b0) {
} -> failure : pattern failed to match
//===-------------------------------------------===//

//===-------------------------------------------===//
Processing operation : 'north_star.buffer'(0x5c9590aa72d0) {
  %0 = "north_star.buffer"(%arg0) : (!north_star.ns_tensor<2x128xf32,0>) -> !north_star.buffer<0>

} -> failure : pattern failed to match
//===-------------------------------------------===//
run out: EliminateBufferCastPass
// -----// IR Dump After EliminateBufferCastPass (eliminate-buffercast) //----- //
module @NorthStar {
  func.func @main(%arg0: !north_star.ns_tensor<2x128xf32,0>) -> !north_star.ns_tensor<2x128xf32,0> attributes {dp_attr = #north_star.DP<DP = 2 : 0, 1>, host_func} {
    %0 = "north_star.buffer"(%arg0) : (!north_star.ns_tensor<2x128xf32,0>) -> !north_star.buffer<0>
    %1 = tensor.empty() {device_id = 0 : i64} : tensor<1x128xf32>
    %2 = "north_star.tensor_to_ns_tensor"(%1) <{device_id = 0 : i64}> : (tensor<1x128xf32>) -> !north_star.ns_tensor<1x128xf32,0>
    %3 = tensor.empty() {device_id = 1 : i64} : tensor<1x128xf32>
    %4 = "north_star.tensor_to_ns_tensor"(%3) <{device_id = 1 : i64}> : (tensor<1x128xf32>) -> !north_star.ns_tensor<1x128xf32,1>
    %5 = "north_star.buffer"(%2, %4) : (!north_star.ns_tensor<1x128xf32,0>, !north_star.ns_tensor<1x128xf32,1>) -> !north_star.buffer<0, 1>
    "north_star.scatter"(%0, %5) : (!north_star.buffer<0>, !north_star.buffer<0, 1>) -> ()
    %6 = "north_star.get_tensor"(%5) <{device_id = 0 : i64}> : (!north_star.buffer<0, 1>) -> !north_star.ns_tensor<1x128xf32,0>
    %7 = "north_star.get_tensor"(%5) <{device_id = 1 : i64}> : (!north_star.buffer<0, 1>) -> !north_star.ns_tensor<1x128xf32,1>
    %8 = "north_star.device_kernel"(%6) <{device_id = 0 : i64, sym_name = "softmax_1_128_softmax_1_128_fused_kernel"}> ({
    ^bb0(%arg1: !north_star.ns_tensor<1x128xf32,0>):
      %15 = "north_star.softmax"(%arg1) <{axis = 1 : i64}> : (!north_star.ns_tensor<1x128xf32,0>) -> !north_star.ns_tensor<1x128xf32,0>
      %16 = "north_star.softmax"(%15) <{axis = 1 : i64}> : (!north_star.ns_tensor<1x128xf32,0>) -> !north_star.ns_tensor<1x128xf32,0>
      north_star.return %16 : !north_star.ns_tensor<1x128xf32,0>
    }) : (!north_star.ns_tensor<1x128xf32,0>) -> !north_star.ns_tensor<1x128xf32,0>
    %9 = "north_star.device_kernel"(%7) <{device_id = 1 : i64, sym_name = "softmax_1_128_softmax_1_128_fused_kernel"}> ({
    ^bb0(%arg1: !north_star.ns_tensor<1x128xf32,1>):
      %15 = "north_star.softmax"(%arg1) <{axis = 1 : i64}> : (!north_star.ns_tensor<1x128xf32,1>) -> !north_star.ns_tensor<1x128xf32,1>
      %16 = "north_star.softmax"(%15) <{axis = 1 : i64}> : (!north_star.ns_tensor<1x128xf32,1>) -> !north_star.ns_tensor<1x128xf32,1>
      north_star.return %16 : !north_star.ns_tensor<1x128xf32,1>
    }) : (!north_star.ns_tensor<1x128xf32,1>) -> !north_star.ns_tensor<1x128xf32,1>
    %10 = "north_star.buffer"(%8, %9) : (!north_star.ns_tensor<1x128xf32,0>, !north_star.ns_tensor<1x128xf32,1>) -> !north_star.buffer<0, 1>
    %11 = tensor.empty() {device_id = 0 : i64} : tensor<2x128xf32>
    %12 = "north_star.tensor_to_ns_tensor"(%11) <{device_id = 0 : i64}> : (tensor<2x128xf32>) -> !north_star.ns_tensor<2x128xf32,0>
    %13 = "north_star.buffer"(%12) : (!north_star.ns_tensor<2x128xf32,0>) -> !north_star.buffer<0>
    "north_star.gather"(%10, %13) : (!north_star.buffer<0, 1>, !north_star.buffer<0>) -> ()
    %14 = "north_star.get_tensor"(%13) <{device_id = 0 : i64}> : (!north_star.buffer<0>) -> !north_star.ns_tensor<2x128xf32,0>
    return %14 : !north_star.ns_tensor<2x128xf32,0>
  }
}


run in ConvertNorthStarToLinalgPass

//===-------------------------------------------===//
Legalizing operation : 'builtin.module'(0x5c95909deb50) {
  * Fold {
  } -> FAILURE : unable to fold
} -> FAILURE : no matched legalization pattern
//===-------------------------------------------===//

//===-------------------------------------------===//
Legalizing operation : 'func.func'(0x5c9590a104b0) {
  * Fold {
  } -> FAILURE : unable to fold
} -> FAILURE : no matched legalization pattern
//===-------------------------------------------===//

//===-------------------------------------------===//
Legalizing operation : 'north_star.buffer'(0x5c9590aa72d0) {
  %0 = "north_star.buffer"(%arg0) : (!north_star.ns_tensor<2x128xf32,0>) -> !north_star.buffer<0>

} -> SUCCESS : operation marked legal by the target
//===-------------------------------------------===//

//===-------------------------------------------===//
Legalizing operation : 'tensor.empty'(0x5c9590a9a430) {
  %1 = "tensor.empty"() {device_id = 0 : i64} : () -> tensor<1x128xf32>

} -> SUCCESS : operation marked legal by the target
//===-------------------------------------------===//

//===-------------------------------------------===//
Legalizing operation : 'north_star.tensor_to_ns_tensor'(0x5c9590aae780) {
  %2 = "north_star.tensor_to_ns_tensor"(%1) <{device_id = 0 : i64}> : (tensor<1x128xf32>) -> !north_star.ns_tensor<1x128xf32,0>

} -> SUCCESS : operation marked legal by the target
//===-------------------------------------------===//

//===-------------------------------------------===//
Legalizing operation : 'tensor.empty'(0x5c9590a9a760) {
  %3 = "tensor.empty"() {device_id = 1 : i64} : () -> tensor<1x128xf32>

} -> SUCCESS : operation marked legal by the target
//===-------------------------------------------===//

//===-------------------------------------------===//
Legalizing operation : 'north_star.tensor_to_ns_tensor'(0x5c9590aabe30) {
  %4 = "north_star.tensor_to_ns_tensor"(%3) <{device_id = 1 : i64}> : (tensor<1x128xf32>) -> !north_star.ns_tensor<1x128xf32,1>

} -> SUCCESS : operation marked legal by the target
//===-------------------------------------------===//

//===-------------------------------------------===//
Legalizing operation : 'north_star.buffer'(0x5c9590aabec0) {
  %5 = "north_star.buffer"(%2, %4) : (!north_star.ns_tensor<1x128xf32,0>, !north_star.ns_tensor<1x128xf32,1>) -> !north_star.buffer<0, 1>

} -> SUCCESS : operation marked legal by the target
//===-------------------------------------------===//

//===-------------------------------------------===//
Legalizing operation : 'north_star.scatter'(0x5c9590a9a650) {
  "north_star.scatter"(%0, %5) : (!north_star.buffer<0>, !north_star.buffer<0, 1>) -> ()

  * Fold {
  } -> FAILURE : unable to fold
} -> FAILURE : no matched legalization pattern
//===-------------------------------------------===//

//===-------------------------------------------===//
Legalizing operation : 'north_star.get_tensor'(0x5c9590aabf70) {
  %6 = "north_star.get_tensor"(%5) <{device_id = 0 : i64}> : (!north_star.buffer<0, 1>) -> !north_star.ns_tensor<1x128xf32,0>

  * Fold {
  } -> FAILURE : unable to fold
} -> FAILURE : no matched legalization pattern
//===-------------------------------------------===//

//===-------------------------------------------===//
Legalizing operation : 'north_star.get_tensor'(0x5c9590aac000) {
  %7 = "north_star.get_tensor"(%5) <{device_id = 1 : i64}> : (!north_star.buffer<0, 1>) -> !north_star.ns_tensor<1x128xf32,1>

  * Fold {
  } -> FAILURE : unable to fold
} -> FAILURE : no matched legalization pattern
//===-------------------------------------------===//

//===-------------------------------------------===//
Legalizing operation : 'north_star.device_kernel'(0x5c9590aa7360) {
  * Fold {
  } -> FAILURE : unable to fold

  * Pattern : 'north_star.device_kernel -> ()' {
Trying to match "{anonymous}::DeviceKernelOpConvertPattern"
    ** Insert  : 'north_star.device_kernel'(0x5c9590aa6940)
    ** Insert Block into : 'north_star.device_kernel'(0x5c9590aa6940)
    ** Insert  : 'north_star.softmax'(0x5c9590aacec0)
    ** Insert  : 'north_star.softmax'(0x5c9590aaf170)
    ** Insert  : 'north_star.return'(0x5c9590aaf1d0)
    ** Insert  : 'north_star.tensor_to_ns_tensor'(0x5c9590ab0b60)
    ** Replace : 'north_star.device_kernel'(0x5c9590aa7360)
"{anonymous}::DeviceKernelOpConvertPattern" result 1

    //===-------------------------------------------===//
    Legalizing operation : 'north_star.softmax'(0x5c9590aacec0) {
      %22 = "north_star.softmax"(%21) <{axis = 1 : i64}> : (!north_star.ns_tensor<1x128xf32,0>) -> !north_star.ns_tensor<1x128xf32,0>

      * Fold {
      } -> FAILURE : unable to fold

      * Pattern : 'north_star.softmax -> ()' {
Trying to match "{anonymous}::SoftmaxOpToLinalgPattern"
        ** Insert  : 'tensor.empty'(0x5c9590ab3c10)
ImplicitTypeIDRegistry::lookupOrInsert(mlir::linalg::detail::SoftmaxOpGenericAdaptorBase::Properties)
        ** Insert  : 'linalg.softmax'(0x5c9590ab3c80)
        ** Replace : 'north_star.softmax'(0x5c9590aacec0)
"{anonymous}::SoftmaxOpToLinalgPattern" result 1

        //===-------------------------------------------===//
        Legalizing operation : 'tensor.empty'(0x5c9590ab3c10) {
          %23 = "tensor.empty"() : () -> tensor<1x128xf32>

        } -> SUCCESS : operation marked legal by the target
        //===-------------------------------------------===//

        //===-------------------------------------------===//
        Legalizing operation : 'linalg.softmax'(0x5c9590ab3c80) {
          %24 = "linalg.softmax"(%22, %23) <{dimension = 1 : i64}> : (tensor<1x128xf32>, tensor<1x128xf32>) -> tensor<1x128xf32>

        } -> SUCCESS : operation marked legal by the target
        //===-------------------------------------------===//
      } -> SUCCESS : pattern applied successfully
// *** IR Dump After Pattern Application ***
%0 = "north_star.device_kernel"(<<UNKNOWN SSA VALUE>>) <{device_id = 0 : i64, sym_name = "softmax_1_128_softmax_1_128_fused_kernel"}> ({
^bb0(%arg0: tensor<1x128xf32>):
  %0 = "north_star.tensor_to_ns_tensor"(%arg0) <{device_id = 0 : i64}> : (tensor<1x128xf32>) -> !north_star.ns_tensor<1x128xf32,0>
  %1 = builtin.unrealized_conversion_cast %0 : !north_star.ns_tensor<1x128xf32,0> to tensor<1x128xf32>
  %2 = tensor.empty() : tensor<1x128xf32>
  %3 = linalg.softmax dimension(1) ins(%1 : tensor<1x128xf32>) outs(%2 : tensor<1x128xf32>) -> tensor<1x128xf32>
  %4 = "north_star.softmax"(%0) <{axis = 1 : i64}> : (!north_star.ns_tensor<1x128xf32,0>) -> !north_star.ns_tensor<1x128xf32,0>
  %5 = "north_star.softmax"(%4) <{axis = 1 : i64}> : (!north_star.ns_tensor<1x128xf32,0>) -> !north_star.ns_tensor<1x128xf32,0>
  north_star.return %5 : !north_star.ns_tensor<1x128xf32,0>
}) : (tensor<1x128xf32>) -> tensor<1x128xf32>


    } -> SUCCESS
    //===-------------------------------------------===//

    //===-------------------------------------------===//
    Legalizing operation : 'north_star.device_kernel'(0x5c9590aa6940) {
    } -> SUCCESS : operation marked legal by the target
    //===-------------------------------------------===//

    //===-------------------------------------------===//
    Legalizing operation : 'north_star.softmax'(0x5c9590aacec0) {
      %25 = "north_star.softmax"(%21) <{axis = 1 : i64}> : (!north_star.ns_tensor<1x128xf32,0>) -> !north_star.ns_tensor<1x128xf32,0>

    } -> SUCCESS : operation marked 'ignored' during conversion
    //===-------------------------------------------===//

    //===-------------------------------------------===//
    Legalizing operation : 'north_star.softmax'(0x5c9590aaf170) {
      %26 = "north_star.softmax"(%25) <{axis = 1 : i64}> : (!north_star.ns_tensor<1x128xf32,0>) -> !north_star.ns_tensor<1x128xf32,0>

      * Fold {
      } -> FAILURE : unable to fold

      * Pattern : 'north_star.softmax -> ()' {
Trying to match "{anonymous}::SoftmaxOpToLinalgPattern"
        ** Insert  : 'tensor.empty'(0x5c9590ab3e00)
        ** Insert  : 'linalg.softmax'(0x5c9590ab3e70)
        ** Replace : 'north_star.softmax'(0x5c9590aaf170)
"{anonymous}::SoftmaxOpToLinalgPattern" result 1

        //===-------------------------------------------===//
        Legalizing operation : 'tensor.empty'(0x5c9590ab3e00) {
          %26 = "tensor.empty"() : () -> tensor<1x128xf32>

        } -> SUCCESS : operation marked legal by the target
        //===-------------------------------------------===//

        //===-------------------------------------------===//
        Legalizing operation : 'linalg.softmax'(0x5c9590ab3e70) {
          %27 = "linalg.softmax"(%24, %26) <{dimension = 1 : i64}> : (tensor<1x128xf32>, tensor<1x128xf32>) -> tensor<1x128xf32>

        } -> SUCCESS : operation marked legal by the target
        //===-------------------------------------------===//
      } -> SUCCESS : pattern applied successfully
// *** IR Dump After Pattern Application ***
%0 = "north_star.device_kernel"(<<UNKNOWN SSA VALUE>>) <{device_id = 0 : i64, sym_name = "softmax_1_128_softmax_1_128_fused_kernel"}> ({
^bb0(%arg0: tensor<1x128xf32>):
  %0 = "north_star.tensor_to_ns_tensor"(%arg0) <{device_id = 0 : i64}> : (tensor<1x128xf32>) -> !north_star.ns_tensor<1x128xf32,0>
  %1 = builtin.unrealized_conversion_cast %0 : !north_star.ns_tensor<1x128xf32,0> to tensor<1x128xf32>
  %2 = tensor.empty() : tensor<1x128xf32>
  %3 = linalg.softmax dimension(1) ins(%1 : tensor<1x128xf32>) outs(%2 : tensor<1x128xf32>) -> tensor<1x128xf32>
  %4 = "north_star.softmax"(%0) <{axis = 1 : i64}> : (!north_star.ns_tensor<1x128xf32,0>) -> !north_star.ns_tensor<1x128xf32,0>
  %5 = tensor.empty() : tensor<1x128xf32>
  %6 = linalg.softmax dimension(1) ins(%3 : tensor<1x128xf32>) outs(%5 : tensor<1x128xf32>) -> tensor<1x128xf32>
  %7 = "north_star.softmax"(%4) <{axis = 1 : i64}> : (!north_star.ns_tensor<1x128xf32,0>) -> !north_star.ns_tensor<1x128xf32,0>
  north_star.return %7 : !north_star.ns_tensor<1x128xf32,0>
}) : (tensor<1x128xf32>) -> tensor<1x128xf32>


    } -> SUCCESS
    //===-------------------------------------------===//

    //===-------------------------------------------===//
    Legalizing operation : 'north_star.return'(0x5c9590aaf1d0) {
      "north_star.return"(%28) : (!north_star.ns_tensor<1x128xf32,0>) -> ()

      * Fold {
      } -> FAILURE : unable to fold

      * Pattern : 'north_star.return -> ()' {
Trying to match "{anonymous}::ReturnOpConvertPattern"
        ** Insert  : 'north_star.return'(0x5c9590aad0c0)
        ** Replace : 'north_star.return'(0x5c9590aaf1d0)
"{anonymous}::ReturnOpConvertPattern" result 1

        //===-------------------------------------------===//
        Legalizing operation : 'north_star.return'(0x5c9590aad0c0) {
          "north_star.return"(%27) : (tensor<1x128xf32>) -> ()

        } -> SUCCESS : operation marked legal by the target
        //===-------------------------------------------===//
      } -> SUCCESS : pattern applied successfully
// *** IR Dump After Pattern Application ***
'north_star.return' op must be the last operation in the parent block
mlir-asm-printer: 'north_star.device_kernel' failed to verify and will be printed in generic form
%0 = "north_star.device_kernel"(<<UNKNOWN SSA VALUE>>) <{device_id = 0 : i64, sym_name = "softmax_1_128_softmax_1_128_fused_kernel"}> ({
^bb0(%arg0: tensor<1x128xf32>):
  %1 = "north_star.tensor_to_ns_tensor"(%arg0) <{device_id = 0 : i64}> : (tensor<1x128xf32>) -> !north_star.ns_tensor<1x128xf32,0>
  %2 = "builtin.unrealized_conversion_cast"(%1) : (!north_star.ns_tensor<1x128xf32,0>) -> tensor<1x128xf32>
  %3 = "tensor.empty"() : () -> tensor<1x128xf32>
  %4 = "linalg.softmax"(%2, %3) <{dimension = 1 : i64}> : (tensor<1x128xf32>, tensor<1x128xf32>) -> tensor<1x128xf32>
  %5 = "north_star.softmax"(%1) <{axis = 1 : i64}> : (!north_star.ns_tensor<1x128xf32,0>) -> !north_star.ns_tensor<1x128xf32,0>
  %6 = "tensor.empty"() : () -> tensor<1x128xf32>
  %7 = "linalg.softmax"(%4, %6) <{dimension = 1 : i64}> : (tensor<1x128xf32>, tensor<1x128xf32>) -> tensor<1x128xf32>
  %8 = "north_star.softmax"(%5) <{axis = 1 : i64}> : (!north_star.ns_tensor<1x128xf32,0>) -> !north_star.ns_tensor<1x128xf32,0>
  "north_star.return"(%7) : (tensor<1x128xf32>) -> ()
  "north_star.return"(%8) : (!north_star.ns_tensor<1x128xf32,0>) -> ()
}) : (tensor<1x128xf32>) -> tensor<1x128xf32>


    } -> SUCCESS
    //===-------------------------------------------===//

    //===-------------------------------------------===//
    Legalizing operation : 'north_star.tensor_to_ns_tensor'(0x5c9590ab0b60) {
      %21 = "north_star.tensor_to_ns_tensor"(%arg3) <{device_id = 0 : i64}> : (tensor<1x128xf32>) -> !north_star.ns_tensor<1x128xf32,0>

    } -> SUCCESS : operation marked legal by the target
    //===-------------------------------------------===//
  } -> SUCCESS : pattern applied successfully
// *** IR Dump After Pattern Application ***
'north_star.return' op must be the last operation in the parent block
mlir-asm-printer: 'func.func' failed to verify and will be printed in generic form
"func.func"() <{function_type = (!north_star.ns_tensor<2x128xf32,0>) -> !north_star.ns_tensor<2x128xf32,0>, sym_name = "main"}> ({
^bb0(%arg0: !north_star.ns_tensor<2x128xf32,0>):
  %0 = "north_star.buffer"(%arg0) : (!north_star.ns_tensor<2x128xf32,0>) -> !north_star.buffer<0>
  %1 = "tensor.empty"() {device_id = 0 : i64} : () -> tensor<1x128xf32>
  %2 = "north_star.tensor_to_ns_tensor"(%1) <{device_id = 0 : i64}> : (tensor<1x128xf32>) -> !north_star.ns_tensor<1x128xf32,0>
  %3 = "tensor.empty"() {device_id = 1 : i64} : () -> tensor<1x128xf32>
  %4 = "north_star.tensor_to_ns_tensor"(%3) <{device_id = 1 : i64}> : (tensor<1x128xf32>) -> !north_star.ns_tensor<1x128xf32,1>
  %5 = "north_star.buffer"(%2, %4) : (!north_star.ns_tensor<1x128xf32,0>, !north_star.ns_tensor<1x128xf32,1>) -> !north_star.buffer<0, 1>
  "north_star.scatter"(%0, %5) : (!north_star.buffer<0>, !north_star.buffer<0, 1>) -> ()
  %6 = "north_star.get_tensor"(%5) <{device_id = 0 : i64}> : (!north_star.buffer<0, 1>) -> !north_star.ns_tensor<1x128xf32,0>
  %7 = "builtin.unrealized_conversion_cast"(%6) : (!north_star.ns_tensor<1x128xf32,0>) -> tensor<1x128xf32>
  %8 = "north_star.get_tensor"(%5) <{device_id = 1 : i64}> : (!north_star.buffer<0, 1>) -> !north_star.ns_tensor<1x128xf32,1>
  %9 = "north_star.device_kernel"(%7) <{device_id = 0 : i64, sym_name = "softmax_1_128_softmax_1_128_fused_kernel"}> ({
  ^bb0(%arg3: tensor<1x128xf32>):
    %21 = "north_star.tensor_to_ns_tensor"(%arg3) <{device_id = 0 : i64}> : (tensor<1x128xf32>) -> !north_star.ns_tensor<1x128xf32,0>
    %22 = "builtin.unrealized_conversion_cast"(%21) : (!north_star.ns_tensor<1x128xf32,0>) -> tensor<1x128xf32>
    %23 = "tensor.empty"() : () -> tensor<1x128xf32>
    %24 = "linalg.softmax"(%22, %23) <{dimension = 1 : i64}> : (tensor<1x128xf32>, tensor<1x128xf32>) -> tensor<1x128xf32>
    %25 = "north_star.softmax"(%21) <{axis = 1 : i64}> : (!north_star.ns_tensor<1x128xf32,0>) -> !north_star.ns_tensor<1x128xf32,0>
    %26 = "tensor.empty"() : () -> tensor<1x128xf32>
    %27 = "linalg.softmax"(%24, %26) <{dimension = 1 : i64}> : (tensor<1x128xf32>, tensor<1x128xf32>) -> tensor<1x128xf32>
    %28 = "north_star.softmax"(%25) <{axis = 1 : i64}> : (!north_star.ns_tensor<1x128xf32,0>) -> !north_star.ns_tensor<1x128xf32,0>
    "north_star.return"(%27) : (tensor<1x128xf32>) -> ()
    "north_star.return"(%28) : (!north_star.ns_tensor<1x128xf32,0>) -> ()
  }) : (tensor<1x128xf32>) -> tensor<1x128xf32>
  %10 = "north_star.device_kernel"(%6) <{device_id = 0 : i64, sym_name = "softmax_1_128_softmax_1_128_fused_kernel"}> ({
  ^bb0(%arg2: !north_star.ns_tensor<1x128xf32,0>):
    %19 = "north_star.softmax"(%arg2) <{axis = 1 : i64}> : (!north_star.ns_tensor<1x128xf32,0>) -> !north_star.ns_tensor<1x128xf32,0>
    %20 = "north_star.softmax"(%19) <{axis = 1 : i64}> : (!north_star.ns_tensor<1x128xf32,0>) -> !north_star.ns_tensor<1x128xf32,0>
    "north_star.return"(%20) : (!north_star.ns_tensor<1x128xf32,0>) -> ()
  }) : (!north_star.ns_tensor<1x128xf32,0>) -> !north_star.ns_tensor<1x128xf32,0>
  %11 = "north_star.device_kernel"(%8) <{device_id = 1 : i64, sym_name = "softmax_1_128_softmax_1_128_fused_kernel"}> ({
  ^bb0(%arg1: !north_star.ns_tensor<1x128xf32,1>):
    %17 = "north_star.softmax"(%arg1) <{axis = 1 : i64}> : (!north_star.ns_tensor<1x128xf32,1>) -> !north_star.ns_tensor<1x128xf32,1>
    %18 = "north_star.softmax"(%17) <{axis = 1 : i64}> : (!north_star.ns_tensor<1x128xf32,1>) -> !north_star.ns_tensor<1x128xf32,1>
    "north_star.return"(%18) : (!north_star.ns_tensor<1x128xf32,1>) -> ()
  }) : (!north_star.ns_tensor<1x128xf32,1>) -> !north_star.ns_tensor<1x128xf32,1>
  %12 = "north_star.buffer"(%10, %11) : (!north_star.ns_tensor<1x128xf32,0>, !north_star.ns_tensor<1x128xf32,1>) -> !north_star.buffer<0, 1>
  %13 = "tensor.empty"() {device_id = 0 : i64} : () -> tensor<2x128xf32>
  %14 = "north_star.tensor_to_ns_tensor"(%13) <{device_id = 0 : i64}> : (tensor<2x128xf32>) -> !north_star.ns_tensor<2x128xf32,0>
  %15 = "north_star.buffer"(%14) : (!north_star.ns_tensor<2x128xf32,0>) -> !north_star.buffer<0>
  "north_star.gather"(%12, %15) : (!north_star.buffer<0, 1>, !north_star.buffer<0>) -> ()
  %16 = "north_star.get_tensor"(%15) <{device_id = 0 : i64}> : (!north_star.buffer<0>) -> !north_star.ns_tensor<2x128xf32,0>
  "func.return"(%16) : (!north_star.ns_tensor<2x128xf32,0>) -> ()
}) {dp_attr = #north_star.DP<DP = 2 : 0, 1>, host_func} : () -> ()


} -> SUCCESS
//===-------------------------------------------===//

//===-------------------------------------------===//
Legalizing operation : 'north_star.softmax'(0x5c9590a0fdf0) {
  %19 = "north_star.softmax"(%arg2) <{axis = 1 : i64}> : (!north_star.ns_tensor<1x128xf32,0>) -> !north_star.ns_tensor<1x128xf32,0>

} -> SUCCESS : operation marked 'ignored' during conversion
//===-------------------------------------------===//

//===-------------------------------------------===//
Legalizing operation : 'north_star.softmax'(0x5c9590aae2a0) {
  %20 = "north_star.softmax"(%19) <{axis = 1 : i64}> : (!north_star.ns_tensor<1x128xf32,0>) -> !north_star.ns_tensor<1x128xf32,0>

} -> SUCCESS : operation marked 'ignored' during conversion
//===-------------------------------------------===//

//===-------------------------------------------===//
Legalizing operation : 'north_star.return'(0x5c9590aae360) {
  "north_star.return"(%20) : (!north_star.ns_tensor<1x128xf32,0>) -> ()

} -> SUCCESS : operation marked 'ignored' during conversion
//===-------------------------------------------===//

//===-------------------------------------------===//
Legalizing operation : 'north_star.device_kernel'(0x5c9590aae470) {
  * Fold {
  } -> FAILURE : unable to fold

  * Pattern : 'north_star.device_kernel -> ()' {
Trying to match "{anonymous}::DeviceKernelOpConvertPattern"
    ** Insert  : 'north_star.device_kernel'(0x5c9590ab11a0)
    ** Insert Block into : 'north_star.device_kernel'(0x5c9590ab11a0)
    ** Insert  : 'north_star.softmax'(0x5c9590ab0c20)
    ** Insert  : 'north_star.softmax'(0x5c9590ab1280)
    ** Insert  : 'north_star.return'(0x5c9590ab12e0)
    ** Insert  : 'north_star.tensor_to_ns_tensor'(0x5c9590ab15c0)
    ** Replace : 'north_star.device_kernel'(0x5c9590aae470)
"{anonymous}::DeviceKernelOpConvertPattern" result 1

    //===-------------------------------------------===//
    Legalizing operation : 'north_star.softmax'(0x5c9590ab0c20) {
      %22 = "north_star.softmax"(%21) <{axis = 1 : i64}> : (!north_star.ns_tensor<1x128xf32,1>) -> !north_star.ns_tensor<1x128xf32,1>

      * Fold {
      } -> FAILURE : unable to fold

      * Pattern : 'north_star.softmax -> ()' {
Trying to match "{anonymous}::SoftmaxOpToLinalgPattern"
        ** Insert  : 'tensor.empty'(0x5c9590a0eb30)
        ** Insert  : 'linalg.softmax'(0x5c9590ab0f40)
        ** Replace : 'north_star.softmax'(0x5c9590ab0c20)
"{anonymous}::SoftmaxOpToLinalgPattern" result 1

        //===-------------------------------------------===//
        Legalizing operation : 'tensor.empty'(0x5c9590a0eb30) {
          %23 = "tensor.empty"() : () -> tensor<1x128xf32>

        } -> SUCCESS : operation marked legal by the target
        //===-------------------------------------------===//

        //===-------------------------------------------===//
        Legalizing operation : 'linalg.softmax'(0x5c9590ab0f40) {
          %24 = "linalg.softmax"(%22, %23) <{dimension = 1 : i64}> : (tensor<1x128xf32>, tensor<1x128xf32>) -> tensor<1x128xf32>

        } -> SUCCESS : operation marked legal by the target
        //===-------------------------------------------===//
      } -> SUCCESS : pattern applied successfully
// *** IR Dump After Pattern Application ***
%0 = "north_star.device_kernel"(<<UNKNOWN SSA VALUE>>) <{device_id = 1 : i64, sym_name = "softmax_1_128_softmax_1_128_fused_kernel"}> ({
^bb0(%arg0: tensor<1x128xf32>):
  %0 = "north_star.tensor_to_ns_tensor"(%arg0) <{device_id = 1 : i64}> : (tensor<1x128xf32>) -> !north_star.ns_tensor<1x128xf32,1>
  %1 = builtin.unrealized_conversion_cast %0 : !north_star.ns_tensor<1x128xf32,1> to tensor<1x128xf32>
  %2 = tensor.empty() : tensor<1x128xf32>
  %3 = linalg.softmax dimension(1) ins(%1 : tensor<1x128xf32>) outs(%2 : tensor<1x128xf32>) -> tensor<1x128xf32>
  %4 = "north_star.softmax"(%0) <{axis = 1 : i64}> : (!north_star.ns_tensor<1x128xf32,1>) -> !north_star.ns_tensor<1x128xf32,1>
  %5 = "north_star.softmax"(%4) <{axis = 1 : i64}> : (!north_star.ns_tensor<1x128xf32,1>) -> !north_star.ns_tensor<1x128xf32,1>
  north_star.return %5 : !north_star.ns_tensor<1x128xf32,1>
}) : (tensor<1x128xf32>) -> tensor<1x128xf32>


    } -> SUCCESS
    //===-------------------------------------------===//

    //===-------------------------------------------===//
    Legalizing operation : 'north_star.device_kernel'(0x5c9590ab11a0) {
    } -> SUCCESS : operation marked legal by the target
    //===-------------------------------------------===//

    //===-------------------------------------------===//
    Legalizing operation : 'north_star.softmax'(0x5c9590ab0c20) {
      %25 = "north_star.softmax"(%21) <{axis = 1 : i64}> : (!north_star.ns_tensor<1x128xf32,1>) -> !north_star.ns_tensor<1x128xf32,1>

    } -> SUCCESS : operation marked 'ignored' during conversion
    //===-------------------------------------------===//

    //===-------------------------------------------===//
    Legalizing operation : 'north_star.softmax'(0x5c9590ab1280) {
      %26 = "north_star.softmax"(%25) <{axis = 1 : i64}> : (!north_star.ns_tensor<1x128xf32,1>) -> !north_star.ns_tensor<1x128xf32,1>

      * Fold {
      } -> FAILURE : unable to fold

      * Pattern : 'north_star.softmax -> ()' {
Trying to match "{anonymous}::SoftmaxOpToLinalgPattern"
        ** Insert  : 'tensor.empty'(0x5c9590ab41c0)
        ** Insert  : 'linalg.softmax'(0x5c9590ab4230)
        ** Replace : 'north_star.softmax'(0x5c9590ab1280)
"{anonymous}::SoftmaxOpToLinalgPattern" result 1

        //===-------------------------------------------===//
        Legalizing operation : 'tensor.empty'(0x5c9590ab41c0) {
          %26 = "tensor.empty"() : () -> tensor<1x128xf32>

        } -> SUCCESS : operation marked legal by the target
        //===-------------------------------------------===//

        //===-------------------------------------------===//
        Legalizing operation : 'linalg.softmax'(0x5c9590ab4230) {
          %27 = "linalg.softmax"(%24, %26) <{dimension = 1 : i64}> : (tensor<1x128xf32>, tensor<1x128xf32>) -> tensor<1x128xf32>

        } -> SUCCESS : operation marked legal by the target
        //===-------------------------------------------===//
      } -> SUCCESS : pattern applied successfully
// *** IR Dump After Pattern Application ***
%0 = "north_star.device_kernel"(<<UNKNOWN SSA VALUE>>) <{device_id = 1 : i64, sym_name = "softmax_1_128_softmax_1_128_fused_kernel"}> ({
^bb0(%arg0: tensor<1x128xf32>):
  %0 = "north_star.tensor_to_ns_tensor"(%arg0) <{device_id = 1 : i64}> : (tensor<1x128xf32>) -> !north_star.ns_tensor<1x128xf32,1>
  %1 = builtin.unrealized_conversion_cast %0 : !north_star.ns_tensor<1x128xf32,1> to tensor<1x128xf32>
  %2 = tensor.empty() : tensor<1x128xf32>
  %3 = linalg.softmax dimension(1) ins(%1 : tensor<1x128xf32>) outs(%2 : tensor<1x128xf32>) -> tensor<1x128xf32>
  %4 = "north_star.softmax"(%0) <{axis = 1 : i64}> : (!north_star.ns_tensor<1x128xf32,1>) -> !north_star.ns_tensor<1x128xf32,1>
  %5 = tensor.empty() : tensor<1x128xf32>
  %6 = linalg.softmax dimension(1) ins(%3 : tensor<1x128xf32>) outs(%5 : tensor<1x128xf32>) -> tensor<1x128xf32>
  %7 = "north_star.softmax"(%4) <{axis = 1 : i64}> : (!north_star.ns_tensor<1x128xf32,1>) -> !north_star.ns_tensor<1x128xf32,1>
  north_star.return %7 : !north_star.ns_tensor<1x128xf32,1>
}) : (tensor<1x128xf32>) -> tensor<1x128xf32>


    } -> SUCCESS
    //===-------------------------------------------===//

    //===-------------------------------------------===//
    Legalizing operation : 'north_star.return'(0x5c9590ab12e0) {
      "north_star.return"(%28) : (!north_star.ns_tensor<1x128xf32,1>) -> ()

      * Fold {
      } -> FAILURE : unable to fold

      * Pattern : 'north_star.return -> ()' {
Trying to match "{anonymous}::ReturnOpConvertPattern"
        ** Insert  : 'north_star.return'(0x5c9590ab42d0)
        ** Replace : 'north_star.return'(0x5c9590ab12e0)
"{anonymous}::ReturnOpConvertPattern" result 1

        //===-------------------------------------------===//
        Legalizing operation : 'north_star.return'(0x5c9590ab42d0) {
          "north_star.return"(%27) : (tensor<1x128xf32>) -> ()

        } -> SUCCESS : operation marked legal by the target
        //===-------------------------------------------===//
      } -> SUCCESS : pattern applied successfully
// *** IR Dump After Pattern Application ***
'north_star.return' op must be the last operation in the parent block
mlir-asm-printer: 'north_star.device_kernel' failed to verify and will be printed in generic form
%0 = "north_star.device_kernel"(<<UNKNOWN SSA VALUE>>) <{device_id = 1 : i64, sym_name = "softmax_1_128_softmax_1_128_fused_kernel"}> ({
^bb0(%arg0: tensor<1x128xf32>):
  %1 = "north_star.tensor_to_ns_tensor"(%arg0) <{device_id = 1 : i64}> : (tensor<1x128xf32>) -> !north_star.ns_tensor<1x128xf32,1>
  %2 = "builtin.unrealized_conversion_cast"(%1) : (!north_star.ns_tensor<1x128xf32,1>) -> tensor<1x128xf32>
  %3 = "tensor.empty"() : () -> tensor<1x128xf32>
  %4 = "linalg.softmax"(%2, %3) <{dimension = 1 : i64}> : (tensor<1x128xf32>, tensor<1x128xf32>) -> tensor<1x128xf32>
  %5 = "north_star.softmax"(%1) <{axis = 1 : i64}> : (!north_star.ns_tensor<1x128xf32,1>) -> !north_star.ns_tensor<1x128xf32,1>
  %6 = "tensor.empty"() : () -> tensor<1x128xf32>
  %7 = "linalg.softmax"(%4, %6) <{dimension = 1 : i64}> : (tensor<1x128xf32>, tensor<1x128xf32>) -> tensor<1x128xf32>
  %8 = "north_star.softmax"(%5) <{axis = 1 : i64}> : (!north_star.ns_tensor<1x128xf32,1>) -> !north_star.ns_tensor<1x128xf32,1>
  "north_star.return"(%7) : (tensor<1x128xf32>) -> ()
  "north_star.return"(%8) : (!north_star.ns_tensor<1x128xf32,1>) -> ()
}) : (tensor<1x128xf32>) -> tensor<1x128xf32>


    } -> SUCCESS
    //===-------------------------------------------===//

    //===-------------------------------------------===//
    Legalizing operation : 'north_star.tensor_to_ns_tensor'(0x5c9590ab15c0) {
      %21 = "north_star.tensor_to_ns_tensor"(%arg2) <{device_id = 1 : i64}> : (tensor<1x128xf32>) -> !north_star.ns_tensor<1x128xf32,1>

    } -> SUCCESS : operation marked legal by the target
    //===-------------------------------------------===//
  } -> SUCCESS : pattern applied successfully
// *** IR Dump After Pattern Application ***
'north_star.return' op must be the last operation in the parent block
'north_star.return' op must be the last operation in the parent block
mlir-asm-printer: 'func.func' failed to verify and will be printed in generic form
"func.func"() <{function_type = (!north_star.ns_tensor<2x128xf32,0>) -> !north_star.ns_tensor<2x128xf32,0>, sym_name = "main"}> ({
^bb0(%arg0: !north_star.ns_tensor<2x128xf32,0>):
  %0 = "north_star.buffer"(%arg0) : (!north_star.ns_tensor<2x128xf32,0>) -> !north_star.buffer<0>
  %1 = "tensor.empty"() {device_id = 0 : i64} : () -> tensor<1x128xf32>
  %2 = "north_star.tensor_to_ns_tensor"(%1) <{device_id = 0 : i64}> : (tensor<1x128xf32>) -> !north_star.ns_tensor<1x128xf32,0>
  %3 = "tensor.empty"() {device_id = 1 : i64} : () -> tensor<1x128xf32>
  %4 = "north_star.tensor_to_ns_tensor"(%3) <{device_id = 1 : i64}> : (tensor<1x128xf32>) -> !north_star.ns_tensor<1x128xf32,1>
  %5 = "north_star.buffer"(%2, %4) : (!north_star.ns_tensor<1x128xf32,0>, !north_star.ns_tensor<1x128xf32,1>) -> !north_star.buffer<0, 1>
  "north_star.scatter"(%0, %5) : (!north_star.buffer<0>, !north_star.buffer<0, 1>) -> ()
  %6 = "north_star.get_tensor"(%5) <{device_id = 0 : i64}> : (!north_star.buffer<0, 1>) -> !north_star.ns_tensor<1x128xf32,0>
  %7 = "builtin.unrealized_conversion_cast"(%6) : (!north_star.ns_tensor<1x128xf32,0>) -> tensor<1x128xf32>
  %8 = "north_star.get_tensor"(%5) <{device_id = 1 : i64}> : (!north_star.buffer<0, 1>) -> !north_star.ns_tensor<1x128xf32,1>
  %9 = "builtin.unrealized_conversion_cast"(%8) : (!north_star.ns_tensor<1x128xf32,1>) -> tensor<1x128xf32>
  %10 = "north_star.device_kernel"(%7) <{device_id = 0 : i64, sym_name = "softmax_1_128_softmax_1_128_fused_kernel"}> ({
  ^bb0(%arg4: tensor<1x128xf32>):
    %31 = "north_star.tensor_to_ns_tensor"(%arg4) <{device_id = 0 : i64}> : (tensor<1x128xf32>) -> !north_star.ns_tensor<1x128xf32,0>
    %32 = "builtin.unrealized_conversion_cast"(%31) : (!north_star.ns_tensor<1x128xf32,0>) -> tensor<1x128xf32>
    %33 = "tensor.empty"() : () -> tensor<1x128xf32>
    %34 = "linalg.softmax"(%32, %33) <{dimension = 1 : i64}> : (tensor<1x128xf32>, tensor<1x128xf32>) -> tensor<1x128xf32>
    %35 = "north_star.softmax"(%31) <{axis = 1 : i64}> : (!north_star.ns_tensor<1x128xf32,0>) -> !north_star.ns_tensor<1x128xf32,0>
    %36 = "tensor.empty"() : () -> tensor<1x128xf32>
    %37 = "linalg.softmax"(%34, %36) <{dimension = 1 : i64}> : (tensor<1x128xf32>, tensor<1x128xf32>) -> tensor<1x128xf32>
    %38 = "north_star.softmax"(%35) <{axis = 1 : i64}> : (!north_star.ns_tensor<1x128xf32,0>) -> !north_star.ns_tensor<1x128xf32,0>
    "north_star.return"(%37) : (tensor<1x128xf32>) -> ()
    "north_star.return"(%38) : (!north_star.ns_tensor<1x128xf32,0>) -> ()
  }) : (tensor<1x128xf32>) -> tensor<1x128xf32>
  %11 = "north_star.device_kernel"(%6) <{device_id = 0 : i64, sym_name = "softmax_1_128_softmax_1_128_fused_kernel"}> ({
  ^bb0(%arg3: !north_star.ns_tensor<1x128xf32,0>):
    %29 = "north_star.softmax"(%arg3) <{axis = 1 : i64}> : (!north_star.ns_tensor<1x128xf32,0>) -> !north_star.ns_tensor<1x128xf32,0>
    %30 = "north_star.softmax"(%29) <{axis = 1 : i64}> : (!north_star.ns_tensor<1x128xf32,0>) -> !north_star.ns_tensor<1x128xf32,0>
    "north_star.return"(%30) : (!north_star.ns_tensor<1x128xf32,0>) -> ()
  }) : (!north_star.ns_tensor<1x128xf32,0>) -> !north_star.ns_tensor<1x128xf32,0>
  %12 = "north_star.device_kernel"(%9) <{device_id = 1 : i64, sym_name = "softmax_1_128_softmax_1_128_fused_kernel"}> ({
  ^bb0(%arg2: tensor<1x128xf32>):
    %21 = "north_star.tensor_to_ns_tensor"(%arg2) <{device_id = 1 : i64}> : (tensor<1x128xf32>) -> !north_star.ns_tensor<1x128xf32,1>
    %22 = "builtin.unrealized_conversion_cast"(%21) : (!north_star.ns_tensor<1x128xf32,1>) -> tensor<1x128xf32>
    %23 = "tensor.empty"() : () -> tensor<1x128xf32>
    %24 = "linalg.softmax"(%22, %23) <{dimension = 1 : i64}> : (tensor<1x128xf32>, tensor<1x128xf32>) -> tensor<1x128xf32>
    %25 = "north_star.softmax"(%21) <{axis = 1 : i64}> : (!north_star.ns_tensor<1x128xf32,1>) -> !north_star.ns_tensor<1x128xf32,1>
    %26 = "tensor.empty"() : () -> tensor<1x128xf32>
    %27 = "linalg.softmax"(%24, %26) <{dimension = 1 : i64}> : (tensor<1x128xf32>, tensor<1x128xf32>) -> tensor<1x128xf32>
    %28 = "north_star.softmax"(%25) <{axis = 1 : i64}> : (!north_star.ns_tensor<1x128xf32,1>) -> !north_star.ns_tensor<1x128xf32,1>
    "north_star.return"(%27) : (tensor<1x128xf32>) -> ()
    "north_star.return"(%28) : (!north_star.ns_tensor<1x128xf32,1>) -> ()
  }) : (tensor<1x128xf32>) -> tensor<1x128xf32>
  %13 = "north_star.device_kernel"(%8) <{device_id = 1 : i64, sym_name = "softmax_1_128_softmax_1_128_fused_kernel"}> ({
  ^bb0(%arg1: !north_star.ns_tensor<1x128xf32,1>):
    %19 = "north_star.softmax"(%arg1) <{axis = 1 : i64}> : (!north_star.ns_tensor<1x128xf32,1>) -> !north_star.ns_tensor<1x128xf32,1>
    %20 = "north_star.softmax"(%19) <{axis = 1 : i64}> : (!north_star.ns_tensor<1x128xf32,1>) -> !north_star.ns_tensor<1x128xf32,1>
    "north_star.return"(%20) : (!north_star.ns_tensor<1x128xf32,1>) -> ()
  }) : (!north_star.ns_tensor<1x128xf32,1>) -> !north_star.ns_tensor<1x128xf32,1>
  %14 = "north_star.buffer"(%11, %13) : (!north_star.ns_tensor<1x128xf32,0>, !north_star.ns_tensor<1x128xf32,1>) -> !north_star.buffer<0, 1>
  %15 = "tensor.empty"() {device_id = 0 : i64} : () -> tensor<2x128xf32>
  %16 = "north_star.tensor_to_ns_tensor"(%15) <{device_id = 0 : i64}> : (tensor<2x128xf32>) -> !north_star.ns_tensor<2x128xf32,0>
  %17 = "north_star.buffer"(%16) : (!north_star.ns_tensor<2x128xf32,0>) -> !north_star.buffer<0>
  "north_star.gather"(%14, %17) : (!north_star.buffer<0, 1>, !north_star.buffer<0>) -> ()
  %18 = "north_star.get_tensor"(%17) <{device_id = 0 : i64}> : (!north_star.buffer<0>) -> !north_star.ns_tensor<2x128xf32,0>
  "func.return"(%18) : (!north_star.ns_tensor<2x128xf32,0>) -> ()
}) {dp_attr = #north_star.DP<DP = 2 : 0, 1>, host_func} : () -> ()


} -> SUCCESS
//===-------------------------------------------===//

//===-------------------------------------------===//
Legalizing operation : 'north_star.softmax'(0x5c9590aae570) {
  %19 = "north_star.softmax"(%arg1) <{axis = 1 : i64}> : (!north_star.ns_tensor<1x128xf32,1>) -> !north_star.ns_tensor<1x128xf32,1>

} -> SUCCESS : operation marked 'ignored' during conversion
//===-------------------------------------------===//

//===-------------------------------------------===//
Legalizing operation : 'north_star.softmax'(0x5c9590aae600) {
  %20 = "north_star.softmax"(%19) <{axis = 1 : i64}> : (!north_star.ns_tensor<1x128xf32,1>) -> !north_star.ns_tensor<1x128xf32,1>

} -> SUCCESS : operation marked 'ignored' during conversion
//===-------------------------------------------===//

//===-------------------------------------------===//
Legalizing operation : 'north_star.return'(0x5c9590aae680) {
  "north_star.return"(%20) : (!north_star.ns_tensor<1x128xf32,1>) -> ()

} -> SUCCESS : operation marked 'ignored' during conversion
//===-------------------------------------------===//

//===-------------------------------------------===//
Legalizing operation : 'north_star.buffer'(0x5c9590aaf710) {
  %14 = "north_star.buffer"(%11, %13) : (!north_star.ns_tensor<1x128xf32,0>, !north_star.ns_tensor<1x128xf32,1>) -> !north_star.buffer<0, 1>

} -> SUCCESS : operation marked legal by the target
//===-------------------------------------------===//

//===-------------------------------------------===//
Legalizing operation : 'tensor.empty'(0x5c9590aae710) {
  %15 = "tensor.empty"() {device_id = 0 : i64} : () -> tensor<2x128xf32>

} -> SUCCESS : operation marked legal by the target
//===-------------------------------------------===//

//===-------------------------------------------===//
Legalizing operation : 'north_star.tensor_to_ns_tensor'(0x5c9590a921e0) {
  %16 = "north_star.tensor_to_ns_tensor"(%15) <{device_id = 0 : i64}> : (tensor<2x128xf32>) -> !north_star.ns_tensor<2x128xf32,0>

} -> SUCCESS : operation marked legal by the target
//===-------------------------------------------===//

//===-------------------------------------------===//
Legalizing operation : 'north_star.buffer'(0x5c9590aa6380) {
  %17 = "north_star.buffer"(%16) : (!north_star.ns_tensor<2x128xf32,0>) -> !north_star.buffer<0>

} -> SUCCESS : operation marked legal by the target
//===-------------------------------------------===//

//===-------------------------------------------===//
Legalizing operation : 'north_star.gather'(0x5c9590a84f40) {
  "north_star.gather"(%14, %17) : (!north_star.buffer<0, 1>, !north_star.buffer<0>) -> ()

  * Fold {
  } -> FAILURE : unable to fold
} -> FAILURE : no matched legalization pattern
//===-------------------------------------------===//

//===-------------------------------------------===//
Legalizing operation : 'north_star.get_tensor'(0x5c9590a0f8a0) {
  %18 = "north_star.get_tensor"(%17) <{device_id = 0 : i64}> : (!north_star.buffer<0>) -> !north_star.ns_tensor<2x128xf32,0>

  * Fold {
  } -> FAILURE : unable to fold
} -> FAILURE : no matched legalization pattern
//===-------------------------------------------===//

//===-------------------------------------------===//
Legalizing operation : 'func.return'(0x5c9590a0ffc0) {
  "func.return"(%18) : (!north_star.ns_tensor<2x128xf32,0>) -> ()

  * Fold {
  } -> FAILURE : unable to fold
} -> FAILURE : no matched legalization pattern
//===-------------------------------------------===//
ImplicitTypeIDRegistry::lookupOrInsert(mlir::north_star::detail::NSTensorToTensorOpGenericAdaptorBase::Properties)
** Insert  : 'north_star.ns_tensor_to_tensor'(0x5c9590ab3900)
** Insert  : 'north_star.ns_tensor_to_tensor'(0x5c9590ab4360)
** Insert  : 'north_star.ns_tensor_to_tensor'(0x5c9590ab3990)
** Insert  : 'north_star.ns_tensor_to_tensor'(0x5c9590ab3820)
** Insert  : 'north_star.tensor_to_ns_tensor'(0x5c9590ab4700)
** Insert  : 'north_star.tensor_to_ns_tensor'(0x5c9590ab47c0)
ImplicitTypeIDRegistry::lookupOrInsert(mlir::DestinationStyleOpInterface::Trait<mlir::TypeID::get() [with Trait = mlir::DestinationStyleOpInterface::Trait]::Empty>)
ImplicitTypeIDRegistry::lookupOrInsert(mlir::linalg::AggregatedOpInterface::Trait<mlir::TypeID::get() [with Trait = mlir::linalg::AggregatedOpInterface::Trait]::Empty>)
ImplicitTypeIDRegistry::lookupOrInsert(mlir::TilingInterface::Trait<mlir::TypeID::get() [with Trait = mlir::TilingInterface::Trait]::Empty>)

//===-------------------------------------------===//
Processing operation : 'func.return'(0x5c9590a0ffc0) {
  "func.return"(%18) : (!north_star.ns_tensor<2x128xf32,0>) -> ()

} -> failure : pattern failed to match
//===-------------------------------------------===//

//===-------------------------------------------===//
Processing operation : 'north_star.get_tensor'(0x5c9590a0f8a0) {
  %18 = "north_star.get_tensor"(%17) <{device_id = 0 : i64}> : (!north_star.buffer<0>) -> !north_star.ns_tensor<2x128xf32,0>

} -> failure : pattern failed to match
//===-------------------------------------------===//

//===-------------------------------------------===//
Processing operation : 'north_star.gather'(0x5c9590a84f40) {
  "north_star.gather"(%14, %17) : (!north_star.buffer<0, 1>, !north_star.buffer<0>) -> ()

} -> failure : pattern failed to match
//===-------------------------------------------===//

//===-------------------------------------------===//
Processing operation : 'north_star.buffer'(0x5c9590aa6380) {
  %17 = "north_star.buffer"(%16) : (!north_star.ns_tensor<2x128xf32,0>) -> !north_star.buffer<0>

} -> failure : pattern failed to match
//===-------------------------------------------===//

//===-------------------------------------------===//
Processing operation : 'north_star.tensor_to_ns_tensor'(0x5c9590a921e0) {
  %16 = "north_star.tensor_to_ns_tensor"(%15) <{device_id = 0 : i64}> : (tensor<2x128xf32>) -> !north_star.ns_tensor<2x128xf32,0>

} -> failure : pattern failed to match
//===-------------------------------------------===//

//===-------------------------------------------===//
Processing operation : 'tensor.empty'(0x5c9590aae710) {
  %15 = "tensor.empty"() {device_id = 0 : i64} : () -> tensor<2x128xf32>

} -> failure : pattern failed to match
//===-------------------------------------------===//

//===-------------------------------------------===//
Processing operation : 'north_star.buffer'(0x5c9590aaf710) {
  %14 = "north_star.buffer"(%11, %13) : (!north_star.ns_tensor<1x128xf32,0>, !north_star.ns_tensor<1x128xf32,1>) -> !north_star.buffer<0, 1>

} -> failure : pattern failed to match
//===-------------------------------------------===//

//===-------------------------------------------===//
Processing operation : 'north_star.tensor_to_ns_tensor'(0x5c9590ab47c0) {
  %13 = "north_star.tensor_to_ns_tensor"(%12) <{device_id = 1 : i64}> : (tensor<1x128xf32>) -> !north_star.ns_tensor<1x128xf32,1>

} -> failure : pattern failed to match
//===-------------------------------------------===//

//===-------------------------------------------===//
Processing operation : 'north_star.return'(0x5c9590ab42d0) {
  "north_star.return"(%24) : (tensor<1x128xf32>) -> ()

} -> failure : pattern failed to match
//===-------------------------------------------===//

//===-------------------------------------------===//
Processing operation : 'linalg.softmax'(0x5c9590ab4230) {
  %24 = "linalg.softmax"(%22, %23) <{dimension = 1 : i64}> : (tensor<1x128xf32>, tensor<1x128xf32>) -> tensor<1x128xf32>

} -> failure : pattern failed to match
//===-------------------------------------------===//

//===-------------------------------------------===//
Processing operation : 'tensor.empty'(0x5c9590ab41c0) {
  %23 = "tensor.empty"() : () -> tensor<1x128xf32>

} -> failure : pattern failed to match
//===-------------------------------------------===//

//===-------------------------------------------===//
Processing operation : 'linalg.softmax'(0x5c9590ab0f40) {
  %22 = "linalg.softmax"(%20, %21) <{dimension = 1 : i64}> : (tensor<1x128xf32>, tensor<1x128xf32>) -> tensor<1x128xf32>

} -> failure : pattern failed to match
//===-------------------------------------------===//

//===-------------------------------------------===//
Processing operation : 'tensor.empty'(0x5c9590a0eb30) {
  %21 = "tensor.empty"() : () -> tensor<1x128xf32>

} -> failure : pattern failed to match
//===-------------------------------------------===//

//===-------------------------------------------===//
Processing operation : 'north_star.ns_tensor_to_tensor'(0x5c9590ab3900) {
  %20 = "north_star.ns_tensor_to_tensor"(%19) <{device_id = 1 : i64}> : (!north_star.ns_tensor<1x128xf32,1>) -> tensor<1x128xf32>

} -> failure : pattern failed to match
//===-------------------------------------------===//

//===-------------------------------------------===//
Processing operation : 'north_star.device_kernel'(0x5c9590ab11a0) {
} -> failure : pattern failed to match
//===-------------------------------------------===//

//===-------------------------------------------===//
Processing operation : 'north_star.tensor_to_ns_tensor'(0x5c9590ab15c0) {
  %19 = "north_star.tensor_to_ns_tensor"(%arg1) <{device_id = 1 : i64}> : (tensor<1x128xf32>) -> !north_star.ns_tensor<1x128xf32,1>

} -> failure : pattern failed to match
//===-------------------------------------------===//

//===-------------------------------------------===//
Processing operation : 'north_star.tensor_to_ns_tensor'(0x5c9590ab4700) {
  %11 = "north_star.tensor_to_ns_tensor"(%10) <{device_id = 0 : i64}> : (tensor<1x128xf32>) -> !north_star.ns_tensor<1x128xf32,0>

} -> failure : pattern failed to match
//===-------------------------------------------===//

//===-------------------------------------------===//
Processing operation : 'north_star.return'(0x5c9590aad0c0) {
  "north_star.return"(%30) : (tensor<1x128xf32>) -> ()

} -> failure : pattern failed to match
//===-------------------------------------------===//

//===-------------------------------------------===//
Processing operation : 'linalg.softmax'(0x5c9590ab3e70) {
  %30 = "linalg.softmax"(%28, %29) <{dimension = 1 : i64}> : (tensor<1x128xf32>, tensor<1x128xf32>) -> tensor<1x128xf32>

} -> failure : pattern failed to match
//===-------------------------------------------===//

//===-------------------------------------------===//
Processing operation : 'tensor.empty'(0x5c9590ab3e00) {
  %29 = "tensor.empty"() : () -> tensor<1x128xf32>

} -> failure : pattern failed to match
//===-------------------------------------------===//

//===-------------------------------------------===//
Processing operation : 'linalg.softmax'(0x5c9590ab3c80) {
  %28 = "linalg.softmax"(%26, %27) <{dimension = 1 : i64}> : (tensor<1x128xf32>, tensor<1x128xf32>) -> tensor<1x128xf32>

} -> failure : pattern failed to match
//===-------------------------------------------===//

//===-------------------------------------------===//
Processing operation : 'tensor.empty'(0x5c9590ab3c10) {
  %27 = "tensor.empty"() : () -> tensor<1x128xf32>

} -> failure : pattern failed to match
//===-------------------------------------------===//

//===-------------------------------------------===//
Processing operation : 'north_star.ns_tensor_to_tensor'(0x5c9590ab3990) {
  %26 = "north_star.ns_tensor_to_tensor"(%25) <{device_id = 0 : i64}> : (!north_star.ns_tensor<1x128xf32,0>) -> tensor<1x128xf32>

} -> failure : pattern failed to match
//===-------------------------------------------===//

//===-------------------------------------------===//
Processing operation : 'north_star.device_kernel'(0x5c9590aa6940) {
} -> failure : pattern failed to match
//===-------------------------------------------===//

//===-------------------------------------------===//
Processing operation : 'north_star.tensor_to_ns_tensor'(0x5c9590ab0b60) {
  %25 = "north_star.tensor_to_ns_tensor"(%arg2) <{device_id = 0 : i64}> : (tensor<1x128xf32>) -> !north_star.ns_tensor<1x128xf32,0>

} -> failure : pattern failed to match
//===-------------------------------------------===//

//===-------------------------------------------===//
Processing operation : 'north_star.ns_tensor_to_tensor'(0x5c9590ab4360) {
  %9 = "north_star.ns_tensor_to_tensor"(%8) <{device_id = 1 : i64}> : (!north_star.ns_tensor<1x128xf32,1>) -> tensor<1x128xf32>

} -> failure : pattern failed to match
//===-------------------------------------------===//

//===-------------------------------------------===//
Processing operation : 'north_star.get_tensor'(0x5c9590aac000) {
  %8 = "north_star.get_tensor"(%5) <{device_id = 1 : i64}> : (!north_star.buffer<0, 1>) -> !north_star.ns_tensor<1x128xf32,1>

} -> failure : pattern failed to match
//===-------------------------------------------===//

//===-------------------------------------------===//
Processing operation : 'north_star.ns_tensor_to_tensor'(0x5c9590ab3820) {
  %7 = "north_star.ns_tensor_to_tensor"(%6) <{device_id = 0 : i64}> : (!north_star.ns_tensor<1x128xf32,0>) -> tensor<1x128xf32>

} -> failure : pattern failed to match
//===-------------------------------------------===//

//===-------------------------------------------===//
Processing operation : 'north_star.get_tensor'(0x5c9590aabf70) {
  %6 = "north_star.get_tensor"(%5) <{device_id = 0 : i64}> : (!north_star.buffer<0, 1>) -> !north_star.ns_tensor<1x128xf32,0>

} -> failure : pattern failed to match
//===-------------------------------------------===//

//===-------------------------------------------===//
Processing operation : 'north_star.scatter'(0x5c9590a9a650) {
  "north_star.scatter"(%0, %5) : (!north_star.buffer<0>, !north_star.buffer<0, 1>) -> ()

} -> failure : pattern failed to match
//===-------------------------------------------===//

//===-------------------------------------------===//
Processing operation : 'north_star.buffer'(0x5c9590aabec0) {
  %5 = "north_star.buffer"(%2, %4) : (!north_star.ns_tensor<1x128xf32,0>, !north_star.ns_tensor<1x128xf32,1>) -> !north_star.buffer<0, 1>

} -> failure : pattern failed to match
//===-------------------------------------------===//

//===-------------------------------------------===//
Processing operation : 'north_star.tensor_to_ns_tensor'(0x5c9590aabe30) {
  %4 = "north_star.tensor_to_ns_tensor"(%3) <{device_id = 1 : i64}> : (tensor<1x128xf32>) -> !north_star.ns_tensor<1x128xf32,1>

} -> failure : pattern failed to match
//===-------------------------------------------===//

//===-------------------------------------------===//
Processing operation : 'tensor.empty'(0x5c9590a9a760) {
  %3 = "tensor.empty"() {device_id = 1 : i64} : () -> tensor<1x128xf32>

} -> failure : pattern failed to match
//===-------------------------------------------===//

//===-------------------------------------------===//
Processing operation : 'north_star.tensor_to_ns_tensor'(0x5c9590aae780) {
  %2 = "north_star.tensor_to_ns_tensor"(%1) <{device_id = 0 : i64}> : (tensor<1x128xf32>) -> !north_star.ns_tensor<1x128xf32,0>

} -> failure : pattern failed to match
//===-------------------------------------------===//

//===-------------------------------------------===//
Processing operation : 'tensor.empty'(0x5c9590a9a430) {
  %1 = "tensor.empty"() {device_id = 0 : i64} : () -> tensor<1x128xf32>

} -> failure : pattern failed to match
//===-------------------------------------------===//

//===-------------------------------------------===//
Processing operation : 'func.func'(0x5c9590a104b0) {
} -> failure : pattern failed to match
//===-------------------------------------------===//

//===-------------------------------------------===//
Processing operation : 'north_star.buffer'(0x5c9590aa72d0) {
  %0 = "north_star.buffer"(%arg0) : (!north_star.ns_tensor<2x128xf32,0>) -> !north_star.buffer<0>

} -> failure : pattern failed to match
//===-------------------------------------------===//
run out: ConvertNorthStarToLinalgPass
// -----// IR Dump After ConvertNorthStarToLinalgPass (convert-north-satr-to-linalg) //----- //
module @NorthStar {
  func.func @main(%arg0: !north_star.ns_tensor<2x128xf32,0>) -> !north_star.ns_tensor<2x128xf32,0> attributes {dp_attr = #north_star.DP<DP = 2 : 0, 1>, host_func} {
    %0 = "north_star.buffer"(%arg0) : (!north_star.ns_tensor<2x128xf32,0>) -> !north_star.buffer<0>
    %1 = tensor.empty() {device_id = 0 : i64} : tensor<1x128xf32>
    %2 = "north_star.tensor_to_ns_tensor"(%1) <{device_id = 0 : i64}> : (tensor<1x128xf32>) -> !north_star.ns_tensor<1x128xf32,0>
    %3 = tensor.empty() {device_id = 1 : i64} : tensor<1x128xf32>
    %4 = "north_star.tensor_to_ns_tensor"(%3) <{device_id = 1 : i64}> : (tensor<1x128xf32>) -> !north_star.ns_tensor<1x128xf32,1>
    %5 = "north_star.buffer"(%2, %4) : (!north_star.ns_tensor<1x128xf32,0>, !north_star.ns_tensor<1x128xf32,1>) -> !north_star.buffer<0, 1>
    "north_star.scatter"(%0, %5) : (!north_star.buffer<0>, !north_star.buffer<0, 1>) -> ()
    %6 = "north_star.get_tensor"(%5) <{device_id = 0 : i64}> : (!north_star.buffer<0, 1>) -> !north_star.ns_tensor<1x128xf32,0>
    %7 = "north_star.ns_tensor_to_tensor"(%6) <{device_id = 0 : i64}> : (!north_star.ns_tensor<1x128xf32,0>) -> tensor<1x128xf32>
    %8 = "north_star.get_tensor"(%5) <{device_id = 1 : i64}> : (!north_star.buffer<0, 1>) -> !north_star.ns_tensor<1x128xf32,1>
    %9 = "north_star.ns_tensor_to_tensor"(%8) <{device_id = 1 : i64}> : (!north_star.ns_tensor<1x128xf32,1>) -> tensor<1x128xf32>
    %10 = "north_star.device_kernel"(%7) <{device_id = 0 : i64, sym_name = "softmax_1_128_softmax_1_128_fused_kernel"}> ({
    ^bb0(%arg1: tensor<1x128xf32>):
      %19 = "north_star.tensor_to_ns_tensor"(%arg1) <{device_id = 0 : i64}> : (tensor<1x128xf32>) -> !north_star.ns_tensor<1x128xf32,0>
      %20 = "north_star.ns_tensor_to_tensor"(%19) <{device_id = 0 : i64}> : (!north_star.ns_tensor<1x128xf32,0>) -> tensor<1x128xf32>
      %21 = tensor.empty() : tensor<1x128xf32>
      %22 = linalg.softmax dimension(1) ins(%20 : tensor<1x128xf32>) outs(%21 : tensor<1x128xf32>) -> tensor<1x128xf32>
      %23 = tensor.empty() : tensor<1x128xf32>
      %24 = linalg.softmax dimension(1) ins(%22 : tensor<1x128xf32>) outs(%23 : tensor<1x128xf32>) -> tensor<1x128xf32>
      north_star.return %24 : tensor<1x128xf32>
    }) : (tensor<1x128xf32>) -> tensor<1x128xf32>
    %11 = "north_star.tensor_to_ns_tensor"(%10) <{device_id = 0 : i64}> : (tensor<1x128xf32>) -> !north_star.ns_tensor<1x128xf32,0>
    %12 = "north_star.device_kernel"(%9) <{device_id = 1 : i64, sym_name = "softmax_1_128_softmax_1_128_fused_kernel"}> ({
    ^bb0(%arg1: tensor<1x128xf32>):
      %19 = "north_star.tensor_to_ns_tensor"(%arg1) <{device_id = 1 : i64}> : (tensor<1x128xf32>) -> !north_star.ns_tensor<1x128xf32,1>
      %20 = "north_star.ns_tensor_to_tensor"(%19) <{device_id = 1 : i64}> : (!north_star.ns_tensor<1x128xf32,1>) -> tensor<1x128xf32>
      %21 = tensor.empty() : tensor<1x128xf32>
      %22 = linalg.softmax dimension(1) ins(%20 : tensor<1x128xf32>) outs(%21 : tensor<1x128xf32>) -> tensor<1x128xf32>
      %23 = tensor.empty() : tensor<1x128xf32>
      %24 = linalg.softmax dimension(1) ins(%22 : tensor<1x128xf32>) outs(%23 : tensor<1x128xf32>) -> tensor<1x128xf32>
      north_star.return %24 : tensor<1x128xf32>
    }) : (tensor<1x128xf32>) -> tensor<1x128xf32>
    %13 = "north_star.tensor_to_ns_tensor"(%12) <{device_id = 1 : i64}> : (tensor<1x128xf32>) -> !north_star.ns_tensor<1x128xf32,1>
    %14 = "north_star.buffer"(%11, %13) : (!north_star.ns_tensor<1x128xf32,0>, !north_star.ns_tensor<1x128xf32,1>) -> !north_star.buffer<0, 1>
    %15 = tensor.empty() {device_id = 0 : i64} : tensor<2x128xf32>
    %16 = "north_star.tensor_to_ns_tensor"(%15) <{device_id = 0 : i64}> : (tensor<2x128xf32>) -> !north_star.ns_tensor<2x128xf32,0>
    %17 = "north_star.buffer"(%16) : (!north_star.ns_tensor<2x128xf32,0>) -> !north_star.buffer<0>
    "north_star.gather"(%14, %17) : (!north_star.buffer<0, 1>, !north_star.buffer<0>) -> ()
    %18 = "north_star.get_tensor"(%17) <{device_id = 0 : i64}> : (!north_star.buffer<0>) -> !north_star.ns_tensor<2x128xf32,0>
    return %18 : !north_star.ns_tensor<2x128xf32,0>
  }
}


run in NorthStarLegalizePass
ImplicitTypeIDRegistry::lookupOrInsert(mlir::arith::detail::ConstantOpGenericAdaptorBase::Properties)
ImplicitTypeIDRegistry::lookupOrInsert(mlir::InferIntRangeInterface::Trait<mlir::TypeID::get() [with Trait = mlir::InferIntRangeInterface::Trait]::Empty>)
ImplicitTypeIDRegistry::lookupOrInsert(mlir::InferTypeOpInterface::Trait<mlir::TypeID::get() [with Trait = mlir::InferTypeOpInterface::Trait]::Empty>)
(i64) -> ()
%c0_i64 = arith.constant 0 : i64
(i64) -> ()
ImplicitTypeIDRegistry::lookupOrInsert(mlir::CallOpInterface::Trait<mlir::TypeID::get() [with Trait = mlir::CallOpInterface::Trait]::Empty>)
ImplicitTypeIDRegistry::lookupOrInsert(mlir::SymbolUserOpInterface::Trait<mlir::TypeID::get() [with Trait = mlir::SymbolUserOpInterface::Trait]::Empty>)
%c1_i64 = arith.constant 1 : i64
(i64) -> ()
%c0_i64_0 = arith.constant 0 : i64
(i64) -> ()
%c0_i64_0 = arith.constant 0 : i64
(i64) -> ()
%c1_i64_1 = arith.constant 1 : i64

//===-------------------------------------------===//
Legalizing operation : 'builtin.module'(0x5c95909deb50) {
  * Fold {
  } -> FAILURE : unable to fold
} -> FAILURE : no matched legalization pattern
//===-------------------------------------------===//

//===-------------------------------------------===//
Legalizing operation : 'func.func'(0x5c9590a104b0) {
  * Fold {
  } -> FAILURE : unable to fold

  * Pattern : 'func.func -> ()' {
Trying to match "{anonymous}::FuncFuncOpRerewriterPattern"
    ** Insert  : 'func.func'(0x5c9590aaf2c0)
    ** Insert Block into : 'func.func'(0x5c9590aaf2c0)
    ** Insert  : 'north_star.buffer'(0x5c9590ab5090)
    ** Insert  : 'arith.constant'(0x5c9590aad010)
    ** Insert  : 'func.call'(0x5c9590aacc80)
    ** Insert  : 'tensor.empty'(0x5c9590aaccf0)
    ** Insert  : 'north_star.tensor_to_ns_tensor'(0x5c9590aacd60)
    ** Insert  : 'arith.constant'(0x5c9590aacdd0)
    ** Insert  : 'func.call'(0x5c9590aafd00)
    ** Insert  : 'tensor.empty'(0x5c9590aafd70)
    ** Insert  : 'north_star.tensor_to_ns_tensor'(0x5c9590aafde0)
    ** Insert  : 'north_star.buffer'(0x5c9590aafe50)
    ** Insert  : 'north_star.scatter'(0x5c9590aafeb0)
    ** Insert  : 'north_star.get_tensor'(0x5c9590aaff20)
    ** Insert  : 'north_star.ns_tensor_to_tensor'(0x5c9590aaff90)
    ** Insert  : 'north_star.get_tensor'(0x5c9590ab0000)
    ** Insert  : 'north_star.ns_tensor_to_tensor'(0x5c9590ab0070)
    ** Insert  : 'arith.constant'(0x5c9590ab00e0)
    ** Insert  : 'func.call'(0x5c9590ab0140)
    ** Insert  : 'north_star.device_kernel'(0x5c9590aaf240)
    ** Insert Block into : 'north_star.device_kernel'(0x5c9590aaf240)
    ** Insert  : 'north_star.tensor_to_ns_tensor'(0x5c9590ab26b0)
    ** Insert  : 'north_star.ns_tensor_to_tensor'(0x5c9590ab2720)
    ** Insert  : 'tensor.empty'(0x5c9590ab2790)
    ** Insert  : 'linalg.softmax'(0x5c9590ab2800)
    ** Insert  : 'tensor.empty'(0x5c9590ab2870)
    ** Insert  : 'linalg.softmax'(0x5c9590ab28e0)
    ** Insert  : 'north_star.return'(0x5c9590ab2940)
    ** Insert  : 'north_star.tensor_to_ns_tensor'(0x5c9590ab01b0)
    ** Insert  : 'arith.constant'(0x5c9590ab0220)
    ** Insert  : 'func.call'(0x5c9590ab0280)
    ** Insert  : 'north_star.device_kernel'(0x5c9590ab3b80)
    ** Insert Block into : 'north_star.device_kernel'(0x5c9590ab3b80)
    ** Insert  : 'north_star.tensor_to_ns_tensor'(0x5c9590ab2e50)
    ** Insert  : 'north_star.ns_tensor_to_tensor'(0x5c9590ab2ec0)
    ** Insert  : 'tensor.empty'(0x5c9590ab2f30)
    ** Insert  : 'linalg.softmax'(0x5c9590ab2fa0)
    ** Insert  : 'tensor.empty'(0x5c9590ab3010)
    ** Insert  : 'linalg.softmax'(0x5c9590ab3080)
    ** Insert  : 'north_star.return'(0x5c9590ab30e0)
    ** Insert  : 'north_star.tensor_to_ns_tensor'(0x5c9590ab02f0)
    ** Insert  : 'north_star.buffer'(0x5c9590ab0360)
    ** Insert  : 'arith.constant'(0x5c9590ab03d0)
    ** Insert  : 'func.call'(0x5c9590ab0430)
    ** Insert  : 'tensor.empty'(0x5c9590ab04a0)
    ** Insert  : 'north_star.tensor_to_ns_tensor'(0x5c9590ab0510)
    ** Insert  : 'north_star.buffer'(0x5c9590ab0580)
    ** Insert  : 'north_star.gather'(0x5c9590ab05e0)
    ** Insert  : 'north_star.get_tensor'(0x5c9590ab0650)
    ** Insert  : 'func.return'(0x5c9590ab06b0)
    ** Insert  : 'north_star.tensor_to_ns_tensor'(0x5c9590ab5d00)
    ** Replace : 'func.func'(0x5c9590a104b0)
"{anonymous}::FuncFuncOpRerewriterPattern" result 1

    //===-------------------------------------------===//
    Legalizing operation : 'north_star.buffer'(0x5c9590ab5090) {
      %37 = "north_star.buffer"(%36) : (!north_star.ns_tensor<2x128xf32,0>) -> !north_star.buffer<0>

    } -> SUCCESS : operation marked legal by the target
    //===-------------------------------------------===//

    //===-------------------------------------------===//
    Legalizing operation : 'func.func'(0x5c9590aaf2c0) {
    } -> SUCCESS : operation marked legal by the target
    //===-------------------------------------------===//

    //===-------------------------------------------===//
    Legalizing operation : 'north_star.buffer'(0x5c9590ab5090) {
      %37 = "north_star.buffer"(%36) : (!north_star.ns_tensor<2x128xf32,0>) -> !north_star.buffer<0>

    } -> SUCCESS : operation marked legal by the target
    //===-------------------------------------------===//

    //===-------------------------------------------===//
    Legalizing operation : 'arith.constant'(0x5c9590aad010) {
      %38 = "arith.constant"() <{value = 0 : i64}> : () -> i64

    } -> SUCCESS : operation marked legal by the target
    //===-------------------------------------------===//

    //===-------------------------------------------===//
    Legalizing operation : 'func.call'(0x5c9590aacc80) {
      "func.call"(%38) <{callee = @__NS__SetDevice}> : (i64) -> ()

    } -> SUCCESS : operation marked legal by the target
    //===-------------------------------------------===//

    //===-------------------------------------------===//
    Legalizing operation : 'tensor.empty'(0x5c9590aaccf0) {
      %39 = "tensor.empty"() {device_id = 0 : i64} : () -> tensor<1x128xf32>

    } -> SUCCESS : operation marked legal by the target
    //===-------------------------------------------===//

    //===-------------------------------------------===//
    Legalizing operation : 'north_star.tensor_to_ns_tensor'(0x5c9590aacd60) {
      %40 = "north_star.tensor_to_ns_tensor"(%39) <{device_id = 0 : i64}> : (tensor<1x128xf32>) -> !north_star.ns_tensor<1x128xf32,0>

    } -> SUCCESS : operation marked legal by the target
    //===-------------------------------------------===//

    //===-------------------------------------------===//
    Legalizing operation : 'arith.constant'(0x5c9590aacdd0) {
      %41 = "arith.constant"() <{value = 1 : i64}> : () -> i64

    } -> SUCCESS : operation marked legal by the target
    //===-------------------------------------------===//

    //===-------------------------------------------===//
    Legalizing operation : 'func.call'(0x5c9590aafd00) {
      "func.call"(%41) <{callee = @__NS__SetDevice}> : (i64) -> ()

    } -> SUCCESS : operation marked legal by the target
    //===-------------------------------------------===//

    //===-------------------------------------------===//
    Legalizing operation : 'tensor.empty'(0x5c9590aafd70) {
      %42 = "tensor.empty"() {device_id = 1 : i64} : () -> tensor<1x128xf32>

    } -> SUCCESS : operation marked legal by the target
    //===-------------------------------------------===//

    //===-------------------------------------------===//
    Legalizing operation : 'north_star.tensor_to_ns_tensor'(0x5c9590aafde0) {
      %43 = "north_star.tensor_to_ns_tensor"(%42) <{device_id = 1 : i64}> : (tensor<1x128xf32>) -> !north_star.ns_tensor<1x128xf32,1>

    } -> SUCCESS : operation marked legal by the target
    //===-------------------------------------------===//

    //===-------------------------------------------===//
    Legalizing operation : 'north_star.buffer'(0x5c9590aafe50) {
      %44 = "north_star.buffer"(%40, %43) : (!north_star.ns_tensor<1x128xf32,0>, !north_star.ns_tensor<1x128xf32,1>) -> !north_star.buffer<0, 1>

    } -> SUCCESS : operation marked legal by the target
    //===-------------------------------------------===//

    //===-------------------------------------------===//
    Legalizing operation : 'north_star.scatter'(0x5c9590aafeb0) {
      "north_star.scatter"(%37, %44) : (!north_star.buffer<0>, !north_star.buffer<0, 1>) -> ()

    } -> SUCCESS : operation marked legal by the target
    //===-------------------------------------------===//

    //===-------------------------------------------===//
    Legalizing operation : 'north_star.get_tensor'(0x5c9590aaff20) {
      %45 = "north_star.get_tensor"(%44) <{device_id = 0 : i64}> : (!north_star.buffer<0, 1>) -> !north_star.ns_tensor<1x128xf32,0>

    } -> SUCCESS : operation marked legal by the target
    //===-------------------------------------------===//

    //===-------------------------------------------===//
    Legalizing operation : 'north_star.ns_tensor_to_tensor'(0x5c9590aaff90) {
      %46 = "north_star.ns_tensor_to_tensor"(%45) <{device_id = 0 : i64}> : (!north_star.ns_tensor<1x128xf32,0>) -> tensor<1x128xf32>

    } -> SUCCESS : operation marked legal by the target
    //===-------------------------------------------===//

    //===-------------------------------------------===//
    Legalizing operation : 'north_star.get_tensor'(0x5c9590ab0000) {
      %47 = "north_star.get_tensor"(%44) <{device_id = 1 : i64}> : (!north_star.buffer<0, 1>) -> !north_star.ns_tensor<1x128xf32,1>

    } -> SUCCESS : operation marked legal by the target
    //===-------------------------------------------===//

    //===-------------------------------------------===//
    Legalizing operation : 'north_star.ns_tensor_to_tensor'(0x5c9590ab0070) {
      %48 = "north_star.ns_tensor_to_tensor"(%47) <{device_id = 1 : i64}> : (!north_star.ns_tensor<1x128xf32,1>) -> tensor<1x128xf32>

    } -> SUCCESS : operation marked legal by the target
    //===-------------------------------------------===//

    //===-------------------------------------------===//
    Legalizing operation : 'arith.constant'(0x5c9590ab00e0) {
      %49 = "arith.constant"() <{value = 0 : i64}> : () -> i64

    } -> SUCCESS : operation marked legal by the target
    //===-------------------------------------------===//

    //===-------------------------------------------===//
    Legalizing operation : 'func.call'(0x5c9590ab0140) {
      "func.call"(%49) <{callee = @__NS__SetDevice}> : (i64) -> ()

    } -> SUCCESS : operation marked legal by the target
    //===-------------------------------------------===//

    //===-------------------------------------------===//
    Legalizing operation : 'north_star.device_kernel'(0x5c9590aaf240) {
      * Fold {
      } -> FAILURE : unable to fold

      * Pattern : 'north_star.device_kernel -> ()' {
Trying to match "{anonymous}::DeviceKernelOpToFuncPattern"
(tensor<1x128xf32>) -> tensor<1x128xf32>
type of return operand 0 ('!north_star.ns_tensor<2x128xf32,0>') doesn't match function result type ('tensor<2x128xf32>') in function @main
mlir-asm-printer: 'builtin.module' failed to verify and will be printed in generic form
%46 = "north_star.ns_tensor_to_tensor"(%45) <{device_id = 0 : i64}> : (!north_star.ns_tensor<1x128xf32,0>) -> tensor<1x128xf32>
        ** Insert  : 'func.call'(0x5c9590ab9790)
        ** Insert Block into : 'func.func'(0x5c9590ab92f0)
        ** Insert  : 'north_star.tensor_to_ns_tensor'(0x5c9590ab5380)
        ** Insert  : 'north_star.ns_tensor_to_tensor'(0x5c9590ab7000)
        ** Insert  : 'tensor.empty'(0x5c9590ab7070)
        ** Insert  : 'linalg.softmax'(0x5c9590ab70e0)
        ** Insert  : 'tensor.empty'(0x5c9590ab7150)
        ** Insert  : 'linalg.softmax'(0x5c9590ab71c0)
        ** Insert  : 'north_star.return'(0x5c9590ab7220)
        ** Replace : 'north_star.device_kernel'(0x5c9590aaf240)
"{anonymous}::DeviceKernelOpToFuncPattern" result 1

        //===-------------------------------------------===//
        Legalizing operation : 'func.func'(0x5c9590ab92f0) {
        } -> SUCCESS : operation marked legal by the target
        //===-------------------------------------------===//

        //===-------------------------------------------===//
        Legalizing operation : 'func.call'(0x5c9590ab9790) {
          %56 = "func.call"(%52) <{callee = @softmax_1_128_softmax_1_128_fused_kernel}> {device_id = 0 : i64, device_kernel} : (tensor<1x128xf32>) -> tensor<1x128xf32>

        } -> SUCCESS : operation marked legal by the target
        //===-------------------------------------------===//

        //===-------------------------------------------===//
        Legalizing operation : 'north_star.tensor_to_ns_tensor'(0x5c9590ab5380) {
          %0 = "north_star.tensor_to_ns_tensor"(%arg0) <{device_id = 0 : i64}> : (tensor<1x128xf32>) -> !north_star.ns_tensor<1x128xf32,0>

        } -> SUCCESS : operation marked legal by the target
        //===-------------------------------------------===//

        //===-------------------------------------------===//
        Legalizing operation : 'north_star.ns_tensor_to_tensor'(0x5c9590ab7000) {
          %1 = "north_star.ns_tensor_to_tensor"(%0) <{device_id = 0 : i64}> : (!north_star.ns_tensor<1x128xf32,0>) -> tensor<1x128xf32>

        } -> SUCCESS : operation marked legal by the target
        //===-------------------------------------------===//

        //===-------------------------------------------===//
        Legalizing operation : 'tensor.empty'(0x5c9590ab7070) {
          %2 = "tensor.empty"() : () -> tensor<1x128xf32>

        } -> SUCCESS : operation marked legal by the target
        //===-------------------------------------------===//

        //===-------------------------------------------===//
        Legalizing operation : 'linalg.softmax'(0x5c9590ab70e0) {
          %3 = "linalg.softmax"(%1, %2) <{dimension = 1 : i64}> : (tensor<1x128xf32>, tensor<1x128xf32>) -> tensor<1x128xf32>

        } -> SUCCESS : operation marked legal by the target
        //===-------------------------------------------===//

        //===-------------------------------------------===//
        Legalizing operation : 'tensor.empty'(0x5c9590ab7150) {
          %4 = "tensor.empty"() : () -> tensor<1x128xf32>

        } -> SUCCESS : operation marked legal by the target
        //===-------------------------------------------===//

        //===-------------------------------------------===//
        Legalizing operation : 'linalg.softmax'(0x5c9590ab71c0) {
          %5 = "linalg.softmax"(%3, %4) <{dimension = 1 : i64}> : (tensor<1x128xf32>, tensor<1x128xf32>) -> tensor<1x128xf32>

        } -> SUCCESS : operation marked legal by the target
        //===-------------------------------------------===//

        //===-------------------------------------------===//
        Legalizing operation : 'north_star.return'(0x5c9590ab7220) {
          "north_star.return"(%5) : (tensor<1x128xf32>) -> ()

          * Fold {
          } -> FAILURE : unable to fold

          * Pattern : 'north_star.return -> ()' {
Trying to match "{anonymous}::ReturnOpToFuncPattern"
            ** Insert  : 'func.return'(0x5c9590ab8f20)
            ** Replace : 'north_star.return'(0x5c9590ab7220)
"{anonymous}::ReturnOpToFuncPattern" result 1

            //===-------------------------------------------===//
            Legalizing operation : 'func.return'(0x5c9590ab8f20) {
              "func.return"(%5) : (tensor<1x128xf32>) -> ()

            } -> SUCCESS : operation marked legal by the target
            //===-------------------------------------------===//
          } -> SUCCESS : pattern applied successfully
// *** IR Dump After Pattern Application ***
'func.return' op must be the last operation in the parent block
mlir-asm-printer: 'func.func' failed to verify and will be printed in generic form
"func.func"() <{function_type = (tensor<1x128xf32>) -> tensor<1x128xf32>, sym_name = "softmax_1_128_softmax_1_128_fused_kernel", sym_visibility = "private"}> ({
^bb0(%arg0: tensor<1x128xf32>):
  %0 = "north_star.tensor_to_ns_tensor"(%arg0) <{device_id = 0 : i64}> : (tensor<1x128xf32>) -> !north_star.ns_tensor<1x128xf32,0>
  %1 = "north_star.ns_tensor_to_tensor"(%0) <{device_id = 0 : i64}> : (!north_star.ns_tensor<1x128xf32,0>) -> tensor<1x128xf32>
  %2 = "tensor.empty"() : () -> tensor<1x128xf32>
  %3 = "linalg.softmax"(%1, %2) <{dimension = 1 : i64}> : (tensor<1x128xf32>, tensor<1x128xf32>) -> tensor<1x128xf32>
  %4 = "tensor.empty"() : () -> tensor<1x128xf32>
  %5 = "linalg.softmax"(%3, %4) <{dimension = 1 : i64}> : (tensor<1x128xf32>, tensor<1x128xf32>) -> tensor<1x128xf32>
  "func.return"(%5) : (tensor<1x128xf32>) -> ()
  "north_star.return"(%5) : (tensor<1x128xf32>) -> ()
}) {device_kernel} : () -> ()


        } -> SUCCESS
        //===-------------------------------------------===//
      } -> SUCCESS : pattern applied successfully
// *** IR Dump After Pattern Application ***
type of return operand 0 ('!north_star.ns_tensor<2x128xf32,0>') doesn't match function result type ('tensor<2x128xf32>') in function @main
mlir-asm-printer: 'func.func' failed to verify and will be printed in generic form
"func.func"() <{arg_attrs = [{func.device_id = 0 : i64}], function_type = (tensor<2x128xf32>) -> tensor<2x128xf32>, sym_name = "main"}> ({
^bb0(%arg0: tensor<2x128xf32>):
  %0 = "north_star.tensor_to_ns_tensor"(%arg0) <{device_id = 0 : i64}> : (tensor<2x128xf32>) -> !north_star.ns_tensor<2x128xf32,0>
  %1 = "north_star.buffer"(%0) : (!north_star.ns_tensor<2x128xf32,0>) -> !north_star.buffer<0>
  %2 = "arith.constant"() <{value = 0 : i64}> : () -> i64
  "func.call"(%2) <{callee = @__NS__SetDevice}> : (i64) -> ()
  %3 = "tensor.empty"() {device_id = 0 : i64} : () -> tensor<1x128xf32>
  %4 = "north_star.tensor_to_ns_tensor"(%3) <{device_id = 0 : i64}> : (tensor<1x128xf32>) -> !north_star.ns_tensor<1x128xf32,0>
  %5 = "arith.constant"() <{value = 1 : i64}> : () -> i64
  "func.call"(%5) <{callee = @__NS__SetDevice}> : (i64) -> ()
  %6 = "tensor.empty"() {device_id = 1 : i64} : () -> tensor<1x128xf32>
  %7 = "north_star.tensor_to_ns_tensor"(%6) <{device_id = 1 : i64}> : (tensor<1x128xf32>) -> !north_star.ns_tensor<1x128xf32,1>
  %8 = "north_star.buffer"(%4, %7) : (!north_star.ns_tensor<1x128xf32,0>, !north_star.ns_tensor<1x128xf32,1>) -> !north_star.buffer<0, 1>
  "north_star.scatter"(%1, %8) : (!north_star.buffer<0>, !north_star.buffer<0, 1>) -> ()
  %9 = "north_star.get_tensor"(%8) <{device_id = 0 : i64}> : (!north_star.buffer<0, 1>) -> !north_star.ns_tensor<1x128xf32,0>
  %10 = "north_star.ns_tensor_to_tensor"(%9) <{device_id = 0 : i64}> : (!north_star.ns_tensor<1x128xf32,0>) -> tensor<1x128xf32>
  %11 = "north_star.get_tensor"(%8) <{device_id = 1 : i64}> : (!north_star.buffer<0, 1>) -> !north_star.ns_tensor<1x128xf32,1>
  %12 = "north_star.ns_tensor_to_tensor"(%11) <{device_id = 1 : i64}> : (!north_star.ns_tensor<1x128xf32,1>) -> tensor<1x128xf32>
  %13 = "arith.constant"() <{value = 0 : i64}> : () -> i64
  "func.call"(%13) <{callee = @__NS__SetDevice}> : (i64) -> ()
  %14 = "func.call"(%10) <{callee = @softmax_1_128_softmax_1_128_fused_kernel}> {device_id = 0 : i64, device_kernel} : (tensor<1x128xf32>) -> tensor<1x128xf32>
  %15 = "north_star.device_kernel"(%10) <{device_id = 0 : i64, sym_name = "softmax_1_128_softmax_1_128_fused_kernel"}> ({
  ^bb0(%arg2: tensor<1x128xf32>):
    %32 = "north_star.tensor_to_ns_tensor"(%arg2) <{device_id = 0 : i64}> : (tensor<1x128xf32>) -> !north_star.ns_tensor<1x128xf32,0>
    %33 = "north_star.ns_tensor_to_tensor"(%32) <{device_id = 0 : i64}> : (!north_star.ns_tensor<1x128xf32,0>) -> tensor<1x128xf32>
    %34 = "tensor.empty"() : () -> tensor<1x128xf32>
    %35 = "linalg.softmax"(%33, %34) <{dimension = 1 : i64}> : (tensor<1x128xf32>, tensor<1x128xf32>) -> tensor<1x128xf32>
    %36 = "tensor.empty"() : () -> tensor<1x128xf32>
    %37 = "linalg.softmax"(%35, %36) <{dimension = 1 : i64}> : (tensor<1x128xf32>, tensor<1x128xf32>) -> tensor<1x128xf32>
    "north_star.return"(%37) : (tensor<1x128xf32>) -> ()
  }) : (tensor<1x128xf32>) -> tensor<1x128xf32>
  %16 = "north_star.tensor_to_ns_tensor"(%15) <{device_id = 0 : i64}> : (tensor<1x128xf32>) -> !north_star.ns_tensor<1x128xf32,0>
  %17 = "arith.constant"() <{value = 1 : i64}> : () -> i64
  "func.call"(%17) <{callee = @__NS__SetDevice}> : (i64) -> ()
  %18 = "north_star.device_kernel"(%12) <{device_id = 1 : i64, sym_name = "softmax_1_128_softmax_1_128_fused_kernel"}> ({
  ^bb0(%arg1: tensor<1x128xf32>):
    %26 = "north_star.tensor_to_ns_tensor"(%arg1) <{device_id = 1 : i64}> : (tensor<1x128xf32>) -> !north_star.ns_tensor<1x128xf32,1>
    %27 = "north_star.ns_tensor_to_tensor"(%26) <{device_id = 1 : i64}> : (!north_star.ns_tensor<1x128xf32,1>) -> tensor<1x128xf32>
    %28 = "tensor.empty"() : () -> tensor<1x128xf32>
    %29 = "linalg.softmax"(%27, %28) <{dimension = 1 : i64}> : (tensor<1x128xf32>, tensor<1x128xf32>) -> tensor<1x128xf32>
    %30 = "tensor.empty"() : () -> tensor<1x128xf32>
    %31 = "linalg.softmax"(%29, %30) <{dimension = 1 : i64}> : (tensor<1x128xf32>, tensor<1x128xf32>) -> tensor<1x128xf32>
    "north_star.return"(%31) : (tensor<1x128xf32>) -> ()
  }) : (tensor<1x128xf32>) -> tensor<1x128xf32>
  %19 = "north_star.tensor_to_ns_tensor"(%18) <{device_id = 1 : i64}> : (tensor<1x128xf32>) -> !north_star.ns_tensor<1x128xf32,1>
  %20 = "north_star.buffer"(%16, %19) : (!north_star.ns_tensor<1x128xf32,0>, !north_star.ns_tensor<1x128xf32,1>) -> !north_star.buffer<0, 1>
  %21 = "arith.constant"() <{value = 0 : i64}> : () -> i64
  "func.call"(%21) <{callee = @__NS__SetDevice}> : (i64) -> ()
  %22 = "tensor.empty"() {device_id = 0 : i64} : () -> tensor<2x128xf32>
  %23 = "north_star.tensor_to_ns_tensor"(%22) <{device_id = 0 : i64}> : (tensor<2x128xf32>) -> !north_star.ns_tensor<2x128xf32,0>
  %24 = "north_star.buffer"(%23) : (!north_star.ns_tensor<2x128xf32,0>) -> !north_star.buffer<0>
  "north_star.gather"(%20, %24) : (!north_star.buffer<0, 1>, !north_star.buffer<0>) -> ()
  %25 = "north_star.get_tensor"(%24) <{device_id = 0 : i64}> : (!north_star.buffer<0>) -> !north_star.ns_tensor<2x128xf32,0>
  "func.return"(%25) : (!north_star.ns_tensor<2x128xf32,0>) -> ()
}) : () -> ()


    } -> SUCCESS
    //===-------------------------------------------===//

    //===-------------------------------------------===//
    Legalizing operation : 'north_star.tensor_to_ns_tensor'(0x5c9590ab26b0) {
      %74 = "north_star.tensor_to_ns_tensor"(%arg6) <{device_id = 0 : i64}> : (tensor<1x128xf32>) -> !north_star.ns_tensor<1x128xf32,0>

    } -> SUCCESS : operation marked legal by the target
    //===-------------------------------------------===//

    //===-------------------------------------------===//
    Legalizing operation : 'north_star.ns_tensor_to_tensor'(0x5c9590ab2720) {
      %75 = "north_star.ns_tensor_to_tensor"(%74) <{device_id = 0 : i64}> : (!north_star.ns_tensor<1x128xf32,0>) -> tensor<1x128xf32>

    } -> SUCCESS : operation marked legal by the target
    //===-------------------------------------------===//

    //===-------------------------------------------===//
    Legalizing operation : 'tensor.empty'(0x5c9590ab2790) {
      %76 = "tensor.empty"() : () -> tensor<1x128xf32>

    } -> SUCCESS : operation marked legal by the target
    //===-------------------------------------------===//

    //===-------------------------------------------===//
    Legalizing operation : 'linalg.softmax'(0x5c9590ab2800) {
      %77 = "linalg.softmax"(%75, %76) <{dimension = 1 : i64}> : (tensor<1x128xf32>, tensor<1x128xf32>) -> tensor<1x128xf32>

    } -> SUCCESS : operation marked legal by the target
    //===-------------------------------------------===//

    //===-------------------------------------------===//
    Legalizing operation : 'tensor.empty'(0x5c9590ab2870) {
      %78 = "tensor.empty"() : () -> tensor<1x128xf32>

    } -> SUCCESS : operation marked legal by the target
    //===-------------------------------------------===//
…
    llvm.store %c1_i64, %20 : i64, !llvm.ptr
    %21 = call @__NS__MakeBuffer_f32(%17, %18, %1) : (!llvm.ptr, !llvm.ptr, i64) -> !llvm.struct<(i64, ptr, ptr, ptr)>
    call @__NS__Scatter(%8, %21) : (!llvm.struct<(i64, ptr, ptr, ptr)>, !llvm.struct<(i64, ptr, ptr, ptr)>) -> ()
    %22 = call @__NS__GetTensor_f32(%c0_i64, %21) : (i64, !llvm.struct<(i64, ptr, ptr, ptr)>) -> !llvm.struct<(i64, struct<(i64, ptr)>)>
    %23 = call @__NS__NSMemrefToMemref_f32(%22) : (!llvm.struct<(i64, struct<(i64, ptr)>)>) -> tensor<*xf32>
    %24 = bufferization.to_memref %23 : memref<*xf32>
    %cast_4 = memref.cast %24 : memref<*xf32> to memref<1x128xf32, strided<[?, ?], offset: ?>>
    %25 = bufferization.to_tensor %cast_4 : memref<1x128xf32, strided<[?, ?], offset: ?>>
    %26 = call @__NS__GetTensor_f32(%c1_i64, %21) : (i64, !llvm.struct<(i64, ptr, ptr, ptr)>) -> !llvm.struct<(i64, struct<(i64, ptr)>)>
    %27 = call @__NS__NSMemrefToMemref_f32(%26) : (!llvm.struct<(i64, struct<(i64, ptr)>)>) -> tensor<*xf32>
    %28 = bufferization.to_memref %27 : memref<*xf32>
    %cast_5 = memref.cast %28 : memref<*xf32> to memref<1x128xf32, strided<[?, ?], offset: ?>>
    %29 = bufferization.to_tensor %cast_5 : memref<1x128xf32, strided<[?, ?], offset: ?>>
    call @__NS__SetDevice(%c0_i64) : (i64) -> ()
    %30 = call @softmax_1_128_softmax_1_128_fused_kernel(%25) {device_id = 0 : i64, device_kernel} : (tensor<1x128xf32>) -> tensor<1x128xf32>
    %31 = bufferization.to_memref %30 : memref<1x128xf32, strided<[?, ?], offset: ?>>
    %alloc_6 = memref.alloc() {alignment = 64 : i64} : memref<1x128xf32>
    memref.copy %31, %alloc_6 : memref<1x128xf32, strided<[?, ?], offset: ?>> to memref<1x128xf32>
    %32 = bufferization.to_tensor %alloc_6 : memref<1x128xf32>
    %cast_7 = memref.cast %alloc_6 : memref<1x128xf32> to memref<*xf32>
    %33 = bufferization.to_tensor %cast_7 : memref<*xf32>
    %34 = call @__NS__MemrefToNSMemref_f32(%c0_i64, %33) : (i64, tensor<*xf32>) -> !llvm.struct<(i64, struct<(i64, ptr)>)>
    call @__NS__SetDevice(%c1_i64) : (i64) -> ()
    %35 = call @softmax_1_128_softmax_1_128_fused_kernel(%29) {device_id = 1 : i64, device_kernel} : (tensor<1x128xf32>) -> tensor<1x128xf32>
    %36 = bufferization.to_memref %35 : memref<1x128xf32, strided<[?, ?], offset: ?>>
    %alloc_8 = memref.alloc() {alignment = 64 : i64} : memref<1x128xf32>
    memref.copy %36, %alloc_8 : memref<1x128xf32, strided<[?, ?], offset: ?>> to memref<1x128xf32>
    %37 = bufferization.to_tensor %alloc_8 : memref<1x128xf32>
    %cast_9 = memref.cast %alloc_8 : memref<1x128xf32> to memref<*xf32>
    %38 = bufferization.to_tensor %cast_9 : memref<*xf32>
    %39 = call @__NS__MemrefToNSMemref_f32(%c1_i64, %38) : (i64, tensor<*xf32>) -> !llvm.struct<(i64, struct<(i64, ptr)>)>
    %40 = llvm.alloca %1 x !llvm.struct<(i64, struct<(i64, ptr)>)> : (i64) -> !llvm.ptr
    %41 = llvm.alloca %1 x i64 : (i64) -> !llvm.ptr
    llvm.store %34, %40 : !llvm.struct<(i64, struct<(i64, ptr)>)>, !llvm.ptr
    llvm.store %c0_i64, %41 : i64, !llvm.ptr
    %42 = llvm.getelementptr %40[1] : (!llvm.ptr) -> !llvm.ptr, !llvm.struct<(i64, struct<(i64, ptr)>)>
    llvm.store %39, %42 : !llvm.struct<(i64, struct<(i64, ptr)>)>, !llvm.ptr
    %43 = llvm.getelementptr %41[1] : (!llvm.ptr) -> !llvm.ptr, i64
    llvm.store %c1_i64, %43 : i64, !llvm.ptr
    %44 = call @__NS__MakeBuffer_f32(%40, %41, %1) : (!llvm.ptr, !llvm.ptr, i64) -> !llvm.struct<(i64, ptr, ptr, ptr)>
    call @__NS__SetDevice(%c0_i64) : (i64) -> ()
    %alloc_10 = memref.alloc() {alignment = 64 : i64} : memref<2x128xf32>
    %45 = bufferization.to_tensor %alloc_10 : memref<2x128xf32>
    %46 = bufferization.to_memref %45 : memref<2x128xf32>
    %cast_11 = memref.cast %46 : memref<2x128xf32> to memref<*xf32>
    %47 = bufferization.to_tensor %cast_11 : memref<*xf32>
    %48 = call @__NS__MemrefToNSMemref_f32(%c0_i64, %47) : (i64, tensor<*xf32>) -> !llvm.struct<(i64, struct<(i64, ptr)>)>
    %49 = llvm.alloca %2 x !llvm.struct<(i64, struct<(i64, ptr)>)> : (i64) -> !llvm.ptr
    %50 = llvm.alloca %2 x i64 : (i64) -> !llvm.ptr
    llvm.store %48, %49 : !llvm.struct<(i64, struct<(i64, ptr)>)>, !llvm.ptr
    llvm.store %c0_i64, %50 : i64, !llvm.ptr
    %51 = call @__NS__MakeBuffer_f32(%49, %50, %2) : (!llvm.ptr, !llvm.ptr, i64) -> !llvm.struct<(i64, ptr, ptr, ptr)>
    call @__NS__Gather(%44, %51) : (!llvm.struct<(i64, ptr, ptr, ptr)>, !llvm.struct<(i64, ptr, ptr, ptr)>) -> ()
    %52 = call @__NS__GetTensor_f32(%c0_i64, %51) : (i64, !llvm.struct<(i64, ptr, ptr, ptr)>) -> !llvm.struct<(i64, struct<(i64, ptr)>)>
    %53 = call @__NS__NSMemrefToMemref_f32(%52) : (!llvm.struct<(i64, struct<(i64, ptr)>)>) -> tensor<*xf32>
    %54 = bufferization.to_memref %53 : memref<*xf32>
    %cast_12 = memref.cast %54 : memref<*xf32> to memref<2x128xf32, strided<[?, ?], offset: ?>>
    %55 = bufferization.to_tensor %cast_12 : memref<2x128xf32, strided<[?, ?], offset: ?>>
    return %55 : tensor<2x128xf32>
  }
  func.func private @__NS__SetDevice(i64)
  func.func private @softmax_1_128_softmax_1_128_fused_kernel(%arg0: tensor<1x128xf32>) -> tensor<1x128xf32> attributes {device_kernel} {
    %0 = bufferization.to_memref %arg0 : memref<1x128xf32, strided<[?, ?], offset: ?>>
    %1 = bufferization.to_memref %arg0 : memref<1x128xf32, strided<[?, ?], offset: ?>>
    %cst = arith.constant 0.000000e+00 : f32
    %cst_0 = arith.constant -3.40282347E+38 : f32
    %alloc = memref.alloc() {alignment = 64 : i64} : memref<1x128xf32>
    %2 = bufferization.to_tensor %alloc : memref<1x128xf32>
    %3 = bufferization.to_memref %2 : memref<1x128xf32>
    %4 = bufferization.to_memref %2 : memref<1x128xf32>
    %alloc_1 = memref.alloc() {alignment = 64 : i64} : memref<1xf32>
    %5 = bufferization.to_tensor %alloc_1 : memref<1xf32>
    %6 = bufferization.to_memref %5 : memref<1xf32>
    %7 = bufferization.to_memref %5 : memref<1xf32>
    linalg.generic {indexing_maps = [affine_map<(d0) -> ()>, affine_map<(d0) -> (d0)>], iterator_types = ["parallel"]} ins(%cst_0 : f32) outs(%7 : memref<1xf32>) {
    ^bb0(%in: f32, %out: f32):
      linalg.yield %in : f32
    }
    %8 = bufferization.to_tensor %7 : memref<1xf32>
    linalg.generic {indexing_maps = [affine_map<(d0, d1) -> (d0, d1)>, affine_map<(d0, d1) -> (d0)>], iterator_types = ["parallel", "reduction"]} ins(%1 : memref<1x128xf32, strided<[?, ?], offset: ?>>) outs(%7 : memref<1xf32>) {
    ^bb0(%in: f32, %out: f32):
      %26 = arith.maxnumf %in, %out : f32
      linalg.yield %26 : f32
    }
    %9 = bufferization.to_tensor %7 : memref<1xf32>
    linalg.generic {indexing_maps = [affine_map<(d0, d1) -> (d0, d1)>, affine_map<(d0, d1) -> (d0)>, affine_map<(d0, d1) -> (d0, d1)>], iterator_types = ["parallel", "parallel"]} ins(%0, %7 : memref<1x128xf32, strided<[?, ?], offset: ?>>, memref<1xf32>) outs(%4 : memref<1x128xf32>) {
    ^bb0(%in: f32, %in_3: f32, %out: f32):
      %26 = arith.subf %in, %in_3 : f32
      %27 = math.exp %26 : f32
      linalg.yield %27 : f32
    }
    %10 = bufferization.to_tensor %4 : memref<1x128xf32>
    linalg.generic {indexing_maps = [affine_map<(d0) -> ()>, affine_map<(d0) -> (d0)>], iterator_types = ["parallel"]} ins(%cst : f32) outs(%6 : memref<1xf32>) {
    ^bb0(%in: f32, %out: f32):
      linalg.yield %in : f32
    }
    %11 = bufferization.to_tensor %6 : memref<1xf32>
    linalg.generic {indexing_maps = [affine_map<(d0, d1) -> (d0, d1)>, affine_map<(d0, d1) -> (d0)>], iterator_types = ["parallel", "reduction"]} ins(%4 : memref<1x128xf32>) outs(%6 : memref<1xf32>) {
    ^bb0(%in: f32, %out: f32):
      %26 = arith.addf %in, %out : f32
      linalg.yield %26 : f32
    }
    %12 = bufferization.to_tensor %6 : memref<1xf32>
    linalg.generic {indexing_maps = [affine_map<(d0, d1) -> (d0, d1)>, affine_map<(d0, d1) -> (d0)>, affine_map<(d0, d1) -> (d0, d1)>], iterator_types = ["parallel", "parallel"]} ins(%4, %6 : memref<1x128xf32>, memref<1xf32>) outs(%3 : memref<1x128xf32>) {
    ^bb0(%in: f32, %in_3: f32, %out: f32):
      %26 = arith.divf %in, %in_3 : f32
      linalg.yield %26 : f32
    }
    %13 = bufferization.to_tensor %3 : memref<1x128xf32>
    %alloc_2 = memref.alloc() {alignment = 64 : i64} : memref<1x128xf32>
    %14 = bufferization.to_tensor %alloc_2 : memref<1x128xf32>
    %15 = bufferization.to_memref %14 : memref<1x128xf32>
    %16 = bufferization.to_memref %14 : memref<1x128xf32>
    %17 = bufferization.alloc_tensor() : tensor<1xf32>
    %18 = bufferization.to_memref %17 : memref<1xf32>
    %19 = bufferization.to_memref %17 : memref<1xf32>
    linalg.generic {indexing_maps = [affine_map<(d0) -> ()>, affine_map<(d0) -> (d0)>], iterator_types = ["parallel"]} ins(%cst_0 : f32) outs(%19 : memref<1xf32>) {
    ^bb0(%in: f32, %out: f32):
      linalg.yield %in : f32
    }
    %20 = bufferization.to_tensor %19 : memref<1xf32>
    linalg.generic {indexing_maps = [affine_map<(d0, d1) -> (d0, d1)>, affine_map<(d0, d1) -> (d0)>], iterator_types = ["parallel", "reduction"]} ins(%3 : memref<1x128xf32>) outs(%19 : memref<1xf32>) {
    ^bb0(%in: f32, %out: f32):
      %26 = arith.maxnumf %in, %out : f32
      linalg.yield %26 : f32
    }
    %21 = bufferization.to_tensor %19 : memref<1xf32>
    linalg.generic {indexing_maps = [affine_map<(d0, d1) -> (d0, d1)>, affine_map<(d0, d1) -> (d0)>, affine_map<(d0, d1) -> (d0, d1)>], iterator_types = ["parallel", "parallel"]} ins(%3, %19 : memref<1x128xf32>, memref<1xf32>) outs(%16 : memref<1x128xf32>) {
    ^bb0(%in: f32, %in_3: f32, %out: f32):
      %26 = arith.subf %in, %in_3 : f32
      %27 = math.exp %26 : f32
      linalg.yield %27 : f32
    }
    %22 = bufferization.to_tensor %16 : memref<1x128xf32>
    linalg.generic {indexing_maps = [affine_map<(d0) -> ()>, affine_map<(d0) -> (d0)>], iterator_types = ["parallel"]} ins(%cst : f32) outs(%18 : memref<1xf32>) {
    ^bb0(%in: f32, %out: f32):
      linalg.yield %in : f32
    }
    %23 = bufferization.to_tensor %18 : memref<1xf32>
    linalg.generic {indexing_maps = [affine_map<(d0, d1) -> (d0, d1)>, affine_map<(d0, d1) -> (d0)>], iterator_types = ["parallel", "reduction"]} ins(%16 : memref<1x128xf32>) outs(%18 : memref<1xf32>) {
    ^bb0(%in: f32, %out: f32):
      %26 = arith.addf %in, %out : f32
      linalg.yield %26 : f32
    }
    %24 = bufferization.to_tensor %18 : memref<1xf32>
    linalg.generic {indexing_maps = [affine_map<(d0, d1) -> (d0, d1)>, affine_map<(d0, d1) -> (d0)>, affine_map<(d0, d1) -> (d0, d1)>], iterator_types = ["parallel", "parallel"]} ins(%16, %18 : memref<1x128xf32>, memref<1xf32>) outs(%15 : memref<1x128xf32>) {
    ^bb0(%in: f32, %in_3: f32, %out: f32):
      %26 = arith.divf %in, %in_3 : f32
      linalg.yield %26 : f32
    }
    %25 = bufferization.to_tensor %15 : memref<1x128xf32>
    return %25 : tensor<1x128xf32>
  }
  func.func private @__NS__MemrefToNSMemref_f32(i64, tensor<*xf32>) -> !llvm.struct<(i64, struct<(i64, ptr)>)>
  func.func private @__NS__MakeBuffer_f32(!llvm.ptr, !llvm.ptr, i64) -> !llvm.struct<(i64, ptr, ptr, ptr)>
  func.func private @__NS__Scatter(!llvm.struct<(i64, ptr, ptr, ptr)>, !llvm.struct<(i64, ptr, ptr, ptr)>)
  func.func private @__NS__GetTensor_f32(i64, !llvm.struct<(i64, ptr, ptr, ptr)>) -> !llvm.struct<(i64, struct<(i64, ptr)>)>
  func.func private @__NS__NSMemrefToMemref_f32(!llvm.struct<(i64, struct<(i64, ptr)>)>) -> tensor<*xf32>
  func.func private @__NS__Gather(!llvm.struct<(i64, ptr, ptr, ptr)>, !llvm.struct<(i64, ptr, ptr, ptr)>)
}
//===-------------------------------------------===//
//===-------------------------------------------===//
IR after bufferizing: bufferization.alloc_tensor
module @NorthStar {
  func.func @main(%arg0: tensor<2x128xf32> {func.device_id = 0 : i64}) -> tensor<2x128xf32> {
    %0 = bufferization.to_memref %arg0 : memref<2x128xf32, strided<[?, ?], offset: ?>>
    %1 = llvm.mlir.constant(2 : i64) : i64
    %2 = llvm.mlir.constant(1 : i64) : i64
    %c0_i64 = arith.constant 0 : i64
    %c1_i64 = arith.constant 1 : i64
    %alloc = memref.alloc() {alignment = 64 : i64} : memref<2x128xf32>
    memref.copy %0, %alloc : memref<2x128xf32, strided<[?, ?], offset: ?>> to memref<2x128xf32>
    %3 = bufferization.to_tensor %alloc : memref<2x128xf32>
    %cast = memref.cast %alloc : memref<2x128xf32> to memref<*xf32>
    %4 = bufferization.to_tensor %cast : memref<*xf32>
    %5 = call @__NS__MemrefToNSMemref_f32(%c0_i64, %4) : (i64, tensor<*xf32>) -> !llvm.struct<(i64, struct<(i64, ptr)>)>
    %6 = llvm.alloca %2 x !llvm.struct<(i64, struct<(i64, ptr)>)> : (i64) -> !llvm.ptr
    %7 = llvm.alloca %2 x i64 : (i64) -> !llvm.ptr
    llvm.store %5, %6 : !llvm.struct<(i64, struct<(i64, ptr)>)>, !llvm.ptr
    llvm.store %c0_i64, %7 : i64, !llvm.ptr
    %8 = call @__NS__MakeBuffer_f32(%6, %7, %2) : (!llvm.ptr, !llvm.ptr, i64) -> !llvm.struct<(i64, ptr, ptr, ptr)>
    call @__NS__SetDevice(%c0_i64) : (i64) -> ()
    %alloc_0 = memref.alloc() {alignment = 64 : i64} : memref<1x128xf32>
    %9 = bufferization.to_tensor %alloc_0 : memref<1x128xf32>
    %10 = bufferization.to_memref %9 : memref<1x128xf32>
    %cast_1 = memref.cast %10 : memref<1x128xf32> to memref<*xf32>
    %11 = bufferization.to_tensor %cast_1 : memref<*xf32>
    %12 = call @__NS__MemrefToNSMemref_f32(%c0_i64, %11) : (i64, tensor<*xf32>) -> !llvm.struct<(i64, struct<(i64, ptr)>)>
    call @__NS__SetDevice(%c1_i64) : (i64) -> ()
    %alloc_2 = memref.alloc() {alignment = 64 : i64} : memref<1x128xf32>
    %13 = bufferization.to_tensor %alloc_2 : memref<1x128xf32>
    %14 = bufferization.to_memref %13 : memref<1x128xf32>
    %cast_3 = memref.cast %14 : memref<1x128xf32> to memref<*xf32>
    %15 = bufferization.to_tensor %cast_3 : memref<*xf32>
    %16 = call @__NS__MemrefToNSMemref_f32(%c1_i64, %15) : (i64, tensor<*xf32>) -> !llvm.struct<(i64, struct<(i64, ptr)>)>
    %17 = llvm.alloca %1 x !llvm.struct<(i64, struct<(i64, ptr)>)> : (i64) -> !llvm.ptr
    %18 = llvm.alloca %1 x i64 : (i64) -> !llvm.ptr
    llvm.store %12, %17 : !llvm.struct<(i64, struct<(i64, ptr)>)>, !llvm.ptr
    llvm.store %c0_i64, %18 : i64, !llvm.ptr
    %19 = llvm.getelementptr %17[1] : (!llvm.ptr) -> !llvm.ptr, !llvm.struct<(i64, struct<(i64, ptr)>)>
    llvm.store %16, %19 : !llvm.struct<(i64, struct<(i64, ptr)>)>, !llvm.ptr
    %20 = llvm.getelementptr %18[1] : (!llvm.ptr) -> !llvm.ptr, i64
    llvm.store %c1_i64, %20 : i64, !llvm.ptr
    %21 = call @__NS__MakeBuffer_f32(%17, %18, %1) : (!llvm.ptr, !llvm.ptr, i64) -> !llvm.struct<(i64, ptr, ptr, ptr)>
    call @__NS__Scatter(%8, %21) : (!llvm.struct<(i64, ptr, ptr, ptr)>, !llvm.struct<(i64, ptr, ptr, ptr)>) -> ()
    %22 = call @__NS__GetTensor_f32(%c0_i64, %21) : (i64, !llvm.struct<(i64, ptr, ptr, ptr)>) -> !llvm.struct<(i64, struct<(i64, ptr)>)>
    %23 = call @__NS__NSMemrefToMemref_f32(%22) : (!llvm.struct<(i64, struct<(i64, ptr)>)>) -> tensor<*xf32>
    %24 = bufferization.to_memref %23 : memref<*xf32>
    %cast_4 = memref.cast %24 : memref<*xf32> to memref<1x128xf32, strided<[?, ?], offset: ?>>
    %25 = bufferization.to_tensor %cast_4 : memref<1x128xf32, strided<[?, ?], offset: ?>>
    %26 = call @__NS__GetTensor_f32(%c1_i64, %21) : (i64, !llvm.struct<(i64, ptr, ptr, ptr)>) -> !llvm.struct<(i64, struct<(i64, ptr)>)>
    %27 = call @__NS__NSMemrefToMemref_f32(%26) : (!llvm.struct<(i64, struct<(i64, ptr)>)>) -> tensor<*xf32>
    %28 = bufferization.to_memref %27 : memref<*xf32>
    %cast_5 = memref.cast %28 : memref<*xf32> to memref<1x128xf32, strided<[?, ?], offset: ?>>
    %29 = bufferization.to_tensor %cast_5 : memref<1x128xf32, strided<[?, ?], offset: ?>>
    call @__NS__SetDevice(%c0_i64) : (i64) -> ()
    %30 = call @softmax_1_128_softmax_1_128_fused_kernel(%25) {device_id = 0 : i64, device_kernel} : (tensor<1x128xf32>) -> tensor<1x128xf32>
    %31 = bufferization.to_memref %30 : memref<1x128xf32, strided<[?, ?], offset: ?>>
    %alloc_6 = memref.alloc() {alignment = 64 : i64} : memref<1x128xf32>
    memref.copy %31, %alloc_6 : memref<1x128xf32, strided<[?, ?], offset: ?>> to memref<1x128xf32>
    %32 = bufferization.to_tensor %alloc_6 : memref<1x128xf32>
    %cast_7 = memref.cast %alloc_6 : memref<1x128xf32> to memref<*xf32>
    %33 = bufferization.to_tensor %cast_7 : memref<*xf32>
    %34 = call @__NS__MemrefToNSMemref_f32(%c0_i64, %33) : (i64, tensor<*xf32>) -> !llvm.struct<(i64, struct<(i64, ptr)>)>
    call @__NS__SetDevice(%c1_i64) : (i64) -> ()
    %35 = call @softmax_1_128_softmax_1_128_fused_kernel(%29) {device_id = 1 : i64, device_kernel} : (tensor<1x128xf32>) -> tensor<1x128xf32>
    %36 = bufferization.to_memref %35 : memref<1x128xf32, strided<[?, ?], offset: ?>>
    %alloc_8 = memref.alloc() {alignment = 64 : i64} : memref<1x128xf32>
    memref.copy %36, %alloc_8 : memref<1x128xf32, strided<[?, ?], offset: ?>> to memref<1x128xf32>
    %37 = bufferization.to_tensor %alloc_8 : memref<1x128xf32>
    %cast_9 = memref.cast %alloc_8 : memref<1x128xf32> to memref<*xf32>
    %38 = bufferization.to_tensor %cast_9 : memref<*xf32>
    %39 = call @__NS__MemrefToNSMemref_f32(%c1_i64, %38) : (i64, tensor<*xf32>) -> !llvm.struct<(i64, struct<(i64, ptr)>)>
    %40 = llvm.alloca %1 x !llvm.struct<(i64, struct<(i64, ptr)>)> : (i64) -> !llvm.ptr
    %41 = llvm.alloca %1 x i64 : (i64) -> !llvm.ptr
    llvm.store %34, %40 : !llvm.struct<(i64, struct<(i64, ptr)>)>, !llvm.ptr
    llvm.store %c0_i64, %41 : i64, !llvm.ptr
    %42 = llvm.getelementptr %40[1] : (!llvm.ptr) -> !llvm.ptr, !llvm.struct<(i64, struct<(i64, ptr)>)>
    llvm.store %39, %42 : !llvm.struct<(i64, struct<(i64, ptr)>)>, !llvm.ptr
    %43 = llvm.getelementptr %41[1] : (!llvm.ptr) -> !llvm.ptr, i64
    llvm.store %c1_i64, %43 : i64, !llvm.ptr
    %44 = call @__NS__MakeBuffer_f32(%40, %41, %1) : (!llvm.ptr, !llvm.ptr, i64) -> !llvm.struct<(i64, ptr, ptr, ptr)>
    call @__NS__SetDevice(%c0_i64) : (i64) -> ()
    %alloc_10 = memref.alloc() {alignment = 64 : i64} : memref<2x128xf32>
    %45 = bufferization.to_tensor %alloc_10 : memref<2x128xf32>
    %46 = bufferization.to_memref %45 : memref<2x128xf32>
    %cast_11 = memref.cast %46 : memref<2x128xf32> to memref<*xf32>
    %47 = bufferization.to_tensor %cast_11 : memref<*xf32>
    %48 = call @__NS__MemrefToNSMemref_f32(%c0_i64, %47) : (i64, tensor<*xf32>) -> !llvm.struct<(i64, struct<(i64, ptr)>)>
    %49 = llvm.alloca %2 x !llvm.struct<(i64, struct<(i64, ptr)>)> : (i64) -> !llvm.ptr
    %50 = llvm.alloca %2 x i64 : (i64) -> !llvm.ptr
    llvm.store %48, %49 : !llvm.struct<(i64, struct<(i64, ptr)>)>, !llvm.ptr
    llvm.store %c0_i64, %50 : i64, !llvm.ptr
    %51 = call @__NS__MakeBuffer_f32(%49, %50, %2) : (!llvm.ptr, !llvm.ptr, i64) -> !llvm.struct<(i64, ptr, ptr, ptr)>
    call @__NS__Gather(%44, %51) : (!llvm.struct<(i64, ptr, ptr, ptr)>, !llvm.struct<(i64, ptr, ptr, ptr)>) -> ()
    %52 = call @__NS__GetTensor_f32(%c0_i64, %51) : (i64, !llvm.struct<(i64, ptr, ptr, ptr)>) -> !llvm.struct<(i64, struct<(i64, ptr)>)>
    %53 = call @__NS__NSMemrefToMemref_f32(%52) : (!llvm.struct<(i64, struct<(i64, ptr)>)>) -> tensor<*xf32>
    %54 = bufferization.to_memref %53 : memref<*xf32>
    %cast_12 = memref.cast %54 : memref<*xf32> to memref<2x128xf32, strided<[?, ?], offset: ?>>
    %55 = bufferization.to_tensor %cast_12 : memref<2x128xf32, strided<[?, ?], offset: ?>>
    return %55 : tensor<2x128xf32>
  }
  func.func private @__NS__SetDevice(i64)
  func.func private @softmax_1_128_softmax_1_128_fused_kernel(%arg0: tensor<1x128xf32>) -> tensor<1x128xf32> attributes {device_kernel} {
    %0 = bufferization.to_memref %arg0 : memref<1x128xf32, strided<[?, ?], offset: ?>>
    %1 = bufferization.to_memref %arg0 : memref<1x128xf32, strided<[?, ?], offset: ?>>
    %cst = arith.constant 0.000000e+00 : f32
    %cst_0 = arith.constant -3.40282347E+38 : f32
    %alloc = memref.alloc() {alignment = 64 : i64} : memref<1x128xf32>
    %2 = bufferization.to_tensor %alloc : memref<1x128xf32>
    %3 = bufferization.to_memref %2 : memref<1x128xf32>
    %4 = bufferization.to_memref %2 : memref<1x128xf32>
    %alloc_1 = memref.alloc() {alignment = 64 : i64} : memref<1xf32>
    %5 = bufferization.to_tensor %alloc_1 : memref<1xf32>
    %6 = bufferization.to_memref %5 : memref<1xf32>
    %7 = bufferization.to_memref %5 : memref<1xf32>
    linalg.generic {indexing_maps = [affine_map<(d0) -> ()>, affine_map<(d0) -> (d0)>], iterator_types = ["parallel"]} ins(%cst_0 : f32) outs(%7 : memref<1xf32>) {
    ^bb0(%in: f32, %out: f32):
      linalg.yield %in : f32
    }
    %8 = bufferization.to_tensor %7 : memref<1xf32>
    linalg.generic {indexing_maps = [affine_map<(d0, d1) -> (d0, d1)>, affine_map<(d0, d1) -> (d0)>], iterator_types = ["parallel", "reduction"]} ins(%1 : memref<1x128xf32, strided<[?, ?], offset: ?>>) outs(%7 : memref<1xf32>) {
    ^bb0(%in: f32, %out: f32):
      %26 = arith.maxnumf %in, %out : f32
      linalg.yield %26 : f32
    }
    %9 = bufferization.to_tensor %7 : memref<1xf32>
    linalg.generic {indexing_maps = [affine_map<(d0, d1) -> (d0, d1)>, affine_map<(d0, d1) -> (d0)>, affine_map<(d0, d1) -> (d0, d1)>], iterator_types = ["parallel", "parallel"]} ins(%0, %7 : memref<1x128xf32, strided<[?, ?], offset: ?>>, memref<1xf32>) outs(%4 : memref<1x128xf32>) {
    ^bb0(%in: f32, %in_4: f32, %out: f32):
      %26 = arith.subf %in, %in_4 : f32
      %27 = math.exp %26 : f32
      linalg.yield %27 : f32
    }
    %10 = bufferization.to_tensor %4 : memref<1x128xf32>
    linalg.generic {indexing_maps = [affine_map<(d0) -> ()>, affine_map<(d0) -> (d0)>], iterator_types = ["parallel"]} ins(%cst : f32) outs(%6 : memref<1xf32>) {
    ^bb0(%in: f32, %out: f32):
      linalg.yield %in : f32
    }
    %11 = bufferization.to_tensor %6 : memref<1xf32>
    linalg.generic {indexing_maps = [affine_map<(d0, d1) -> (d0, d1)>, affine_map<(d0, d1) -> (d0)>], iterator_types = ["parallel", "reduction"]} ins(%4 : memref<1x128xf32>) outs(%6 : memref<1xf32>) {
    ^bb0(%in: f32, %out: f32):
      %26 = arith.addf %in, %out : f32
      linalg.yield %26 : f32
    }
    %12 = bufferization.to_tensor %6 : memref<1xf32>
    linalg.generic {indexing_maps = [affine_map<(d0, d1) -> (d0, d1)>, affine_map<(d0, d1) -> (d0)>, affine_map<(d0, d1) -> (d0, d1)>], iterator_types = ["parallel", "parallel"]} ins(%4, %6 : memref<1x128xf32>, memref<1xf32>) outs(%3 : memref<1x128xf32>) {
    ^bb0(%in: f32, %in_4: f32, %out: f32):
      %26 = arith.divf %in, %in_4 : f32
      linalg.yield %26 : f32
    }
    %13 = bufferization.to_tensor %3 : memref<1x128xf32>
    %alloc_2 = memref.alloc() {alignment = 64 : i64} : memref<1x128xf32>
    %14 = bufferization.to_tensor %alloc_2 : memref<1x128xf32>
    %15 = bufferization.to_memref %14 : memref<1x128xf32>
    %16 = bufferization.to_memref %14 : memref<1x128xf32>
    %alloc_3 = memref.alloc() {alignment = 64 : i64} : memref<1xf32>
    %17 = bufferization.to_tensor %alloc_3 : memref<1xf32>
    %18 = bufferization.to_memref %17 : memref<1xf32>
    %19 = bufferization.to_memref %17 : memref<1xf32>
    linalg.generic {indexing_maps = [affine_map<(d0) -> ()>, affine_map<(d0) -> (d0)>], iterator_types = ["parallel"]} ins(%cst_0 : f32) outs(%19 : memref<1xf32>) {
    ^bb0(%in: f32, %out: f32):
      linalg.yield %in : f32
    }
    %20 = bufferization.to_tensor %19 : memref<1xf32>
    linalg.generic {indexing_maps = [affine_map<(d0, d1) -> (d0, d1)>, affine_map<(d0, d1) -> (d0)>], iterator_types = ["parallel", "reduction"]} ins(%3 : memref<1x128xf32>) outs(%19 : memref<1xf32>) {
    ^bb0(%in: f32, %out: f32):
      %26 = arith.maxnumf %in, %out : f32
      linalg.yield %26 : f32
    }
    %21 = bufferization.to_tensor %19 : memref<1xf32>
    linalg.generic {indexing_maps = [affine_map<(d0, d1) -> (d0, d1)>, affine_map<(d0, d1) -> (d0)>, affine_map<(d0, d1) -> (d0, d1)>], iterator_types = ["parallel", "parallel"]} ins(%3, %19 : memref<1x128xf32>, memref<1xf32>) outs(%16 : memref<1x128xf32>) {
    ^bb0(%in: f32, %in_4: f32, %out: f32):
      %26 = arith.subf %in, %in_4 : f32
      %27 = math.exp %26 : f32
      linalg.yield %27 : f32
    }
    %22 = bufferization.to_tensor %16 : memref<1x128xf32>
    linalg.generic {indexing_maps = [affine_map<(d0) -> ()>, affine_map<(d0) -> (d0)>], iterator_types = ["parallel"]} ins(%cst : f32) outs(%18 : memref<1xf32>) {
    ^bb0(%in: f32, %out: f32):
      linalg.yield %in : f32
    }
    %23 = bufferization.to_tensor %18 : memref<1xf32>
    linalg.generic {indexing_maps = [affine_map<(d0, d1) -> (d0, d1)>, affine_map<(d0, d1) -> (d0)>], iterator_types = ["parallel", "reduction"]} ins(%16 : memref<1x128xf32>) outs(%18 : memref<1xf32>) {
    ^bb0(%in: f32, %out: f32):
      %26 = arith.addf %in, %out : f32
      linalg.yield %26 : f32
    }
    %24 = bufferization.to_tensor %18 : memref<1xf32>
    linalg.generic {indexing_maps = [affine_map<(d0, d1) -> (d0, d1)>, affine_map<(d0, d1) -> (d0)>, affine_map<(d0, d1) -> (d0, d1)>], iterator_types = ["parallel", "parallel"]} ins(%16, %18 : memref<1x128xf32>, memref<1xf32>) outs(%15 : memref<1x128xf32>) {
    ^bb0(%in: f32, %in_4: f32, %out: f32):
      %26 = arith.divf %in, %in_4 : f32
      linalg.yield %26 : f32
    }
    %25 = bufferization.to_tensor %15 : memref<1x128xf32>
    return %25 : tensor<1x128xf32>
  }
  func.func private @__NS__MemrefToNSMemref_f32(i64, tensor<*xf32>) -> !llvm.struct<(i64, struct<(i64, ptr)>)>
  func.func private @__NS__MakeBuffer_f32(!llvm.ptr, !llvm.ptr, i64) -> !llvm.struct<(i64, ptr, ptr, ptr)>
  func.func private @__NS__Scatter(!llvm.struct<(i64, ptr, ptr, ptr)>, !llvm.struct<(i64, ptr, ptr, ptr)>)
  func.func private @__NS__GetTensor_f32(i64, !llvm.struct<(i64, ptr, ptr, ptr)>) -> !llvm.struct<(i64, struct<(i64, ptr)>)>
  func.func private @__NS__NSMemrefToMemref_f32(!llvm.struct<(i64, struct<(i64, ptr)>)>) -> tensor<*xf32>
  func.func private @__NS__Gather(!llvm.struct<(i64, ptr, ptr, ptr)>, !llvm.struct<(i64, ptr, ptr, ptr)>)
}
//===-------------------------------------------===//
// -----// IR Dump After OneShotBufferize (one-shot-bufferize) //----- //
#map = affine_map<(d0) -> ()>
#map1 = affine_map<(d0) -> (d0)>
#map2 = affine_map<(d0, d1) -> (d0, d1)>
#map3 = affine_map<(d0, d1) -> (d0)>
module @NorthStar {
  func.func @main(%arg0: tensor<2x128xf32> {func.device_id = 0 : i64}) -> tensor<2x128xf32> {
    %0 = bufferization.to_memref %arg0 : memref<2x128xf32, strided<[?, ?], offset: ?>>
    %1 = llvm.mlir.constant(2 : i64) : i64
    %2 = llvm.mlir.constant(1 : i64) : i64
    %c0_i64 = arith.constant 0 : i64
    %c1_i64 = arith.constant 1 : i64
    %alloc = memref.alloc() {alignment = 64 : i64} : memref<2x128xf32>
    memref.copy %0, %alloc : memref<2x128xf32, strided<[?, ?], offset: ?>> to memref<2x128xf32>
    %cast = memref.cast %alloc : memref<2x128xf32> to memref<*xf32>
    %3 = bufferization.to_tensor %cast : memref<*xf32>
    %4 = call @__NS__MemrefToNSMemref_f32(%c0_i64, %3) : (i64, tensor<*xf32>) -> !llvm.struct<(i64, struct<(i64, ptr)>)>
    %5 = llvm.alloca %2 x !llvm.struct<(i64, struct<(i64, ptr)>)> : (i64) -> !llvm.ptr
    %6 = llvm.alloca %2 x i64 : (i64) -> !llvm.ptr
    llvm.store %4, %5 : !llvm.struct<(i64, struct<(i64, ptr)>)>, !llvm.ptr
    llvm.store %c0_i64, %6 : i64, !llvm.ptr
    %7 = call @__NS__MakeBuffer_f32(%5, %6, %2) : (!llvm.ptr, !llvm.ptr, i64) -> !llvm.struct<(i64, ptr, ptr, ptr)>
    call @__NS__SetDevice(%c0_i64) : (i64) -> ()
    %alloc_0 = memref.alloc() {alignment = 64 : i64} : memref<1x128xf32>
    %cast_1 = memref.cast %alloc_0 : memref<1x128xf32> to memref<*xf32>
    %8 = bufferization.to_tensor %cast_1 : memref<*xf32>
    %9 = call @__NS__MemrefToNSMemref_f32(%c0_i64, %8) : (i64, tensor<*xf32>) -> !llvm.struct<(i64, struct<(i64, ptr)>)>
    call @__NS__SetDevice(%c1_i64) : (i64) -> ()
    %alloc_2 = memref.alloc() {alignment = 64 : i64} : memref<1x128xf32>
    %cast_3 = memref.cast %alloc_2 : memref<1x128xf32> to memref<*xf32>
    %10 = bufferization.to_tensor %cast_3 : memref<*xf32>
    %11 = call @__NS__MemrefToNSMemref_f32(%c1_i64, %10) : (i64, tensor<*xf32>) -> !llvm.struct<(i64, struct<(i64, ptr)>)>
    %12 = llvm.alloca %1 x !llvm.struct<(i64, struct<(i64, ptr)>)> : (i64) -> !llvm.ptr
    %13 = llvm.alloca %1 x i64 : (i64) -> !llvm.ptr
    llvm.store %9, %12 : !llvm.struct<(i64, struct<(i64, ptr)>)>, !llvm.ptr
    llvm.store %c0_i64, %13 : i64, !llvm.ptr
    %14 = llvm.getelementptr %12[1] : (!llvm.ptr) -> !llvm.ptr, !llvm.struct<(i64, struct<(i64, ptr)>)>
    llvm.store %11, %14 : !llvm.struct<(i64, struct<(i64, ptr)>)>, !llvm.ptr
    %15 = llvm.getelementptr %13[1] : (!llvm.ptr) -> !llvm.ptr, i64
    llvm.store %c1_i64, %15 : i64, !llvm.ptr
    %16 = call @__NS__MakeBuffer_f32(%12, %13, %1) : (!llvm.ptr, !llvm.ptr, i64) -> !llvm.struct<(i64, ptr, ptr, ptr)>
    call @__NS__Scatter(%7, %16) : (!llvm.struct<(i64, ptr, ptr, ptr)>, !llvm.struct<(i64, ptr, ptr, ptr)>) -> ()
    %17 = call @__NS__GetTensor_f32(%c0_i64, %16) : (i64, !llvm.struct<(i64, ptr, ptr, ptr)>) -> !llvm.struct<(i64, struct<(i64, ptr)>)>
    %18 = call @__NS__NSMemrefToMemref_f32(%17) : (!llvm.struct<(i64, struct<(i64, ptr)>)>) -> tensor<*xf32>
    %19 = bufferization.to_memref %18 : memref<*xf32>
    %cast_4 = memref.cast %19 : memref<*xf32> to memref<1x128xf32, strided<[?, ?], offset: ?>>
    %20 = bufferization.to_tensor %cast_4 : memref<1x128xf32, strided<[?, ?], offset: ?>>
    %21 = call @__NS__GetTensor_f32(%c1_i64, %16) : (i64, !llvm.struct<(i64, ptr, ptr, ptr)>) -> !llvm.struct<(i64, struct<(i64, ptr)>)>
    %22 = call @__NS__NSMemrefToMemref_f32(%21) : (!llvm.struct<(i64, struct<(i64, ptr)>)>) -> tensor<*xf32>
    %23 = bufferization.to_memref %22 : memref<*xf32>
    %cast_5 = memref.cast %23 : memref<*xf32> to memref<1x128xf32, strided<[?, ?], offset: ?>>
    %24 = bufferization.to_tensor %cast_5 : memref<1x128xf32, strided<[?, ?], offset: ?>>
    call @__NS__SetDevice(%c0_i64) : (i64) -> ()
    %25 = call @softmax_1_128_softmax_1_128_fused_kernel(%20) {device_id = 0 : i64, device_kernel} : (tensor<1x128xf32>) -> tensor<1x128xf32>
    %26 = bufferization.to_memref %25 : memref<1x128xf32, strided<[?, ?], offset: ?>>
    %alloc_6 = memref.alloc() {alignment = 64 : i64} : memref<1x128xf32>
    memref.copy %26, %alloc_6 : memref<1x128xf32, strided<[?, ?], offset: ?>> to memref<1x128xf32>
    %cast_7 = memref.cast %alloc_6 : memref<1x128xf32> to memref<*xf32>
    %27 = bufferization.to_tensor %cast_7 : memref<*xf32>
    %28 = call @__NS__MemrefToNSMemref_f32(%c0_i64, %27) : (i64, tensor<*xf32>) -> !llvm.struct<(i64, struct<(i64, ptr)>)>
    call @__NS__SetDevice(%c1_i64) : (i64) -> ()
    %29 = call @softmax_1_128_softmax_1_128_fused_kernel(%24) {device_id = 1 : i64, device_kernel} : (tensor<1x128xf32>) -> tensor<1x128xf32>
    %30 = bufferization.to_memref %29 : memref<1x128xf32, strided<[?, ?], offset: ?>>
    %alloc_8 = memref.alloc() {alignment = 64 : i64} : memref<1x128xf32>
    memref.copy %30, %alloc_8 : memref<1x128xf32, strided<[?, ?], offset: ?>> to memref<1x128xf32>
    %cast_9 = memref.cast %alloc_8 : memref<1x128xf32> to memref<*xf32>
    %31 = bufferization.to_tensor %cast_9 : memref<*xf32>
    %32 = call @__NS__MemrefToNSMemref_f32(%c1_i64, %31) : (i64, tensor<*xf32>) -> !llvm.struct<(i64, struct<(i64, ptr)>)>
    %33 = llvm.alloca %1 x !llvm.struct<(i64, struct<(i64, ptr)>)> : (i64) -> !llvm.ptr
    %34 = llvm.alloca %1 x i64 : (i64) -> !llvm.ptr
    llvm.store %28, %33 : !llvm.struct<(i64, struct<(i64, ptr)>)>, !llvm.ptr
    llvm.store %c0_i64, %34 : i64, !llvm.ptr
    %35 = llvm.getelementptr %33[1] : (!llvm.ptr) -> !llvm.ptr, !llvm.struct<(i64, struct<(i64, ptr)>)>
    llvm.store %32, %35 : !llvm.struct<(i64, struct<(i64, ptr)>)>, !llvm.ptr
    %36 = llvm.getelementptr %34[1] : (!llvm.ptr) -> !llvm.ptr, i64
    llvm.store %c1_i64, %36 : i64, !llvm.ptr
    %37 = call @__NS__MakeBuffer_f32(%33, %34, %1) : (!llvm.ptr, !llvm.ptr, i64) -> !llvm.struct<(i64, ptr, ptr, ptr)>
    call @__NS__SetDevice(%c0_i64) : (i64) -> ()
    %alloc_10 = memref.alloc() {alignment = 64 : i64} : memref<2x128xf32>
    %cast_11 = memref.cast %alloc_10 : memref<2x128xf32> to memref<*xf32>
    %38 = bufferization.to_tensor %cast_11 : memref<*xf32>
    %39 = call @__NS__MemrefToNSMemref_f32(%c0_i64, %38) : (i64, tensor<*xf32>) -> !llvm.struct<(i64, struct<(i64, ptr)>)>
    %40 = llvm.alloca %2 x !llvm.struct<(i64, struct<(i64, ptr)>)> : (i64) -> !llvm.ptr
    %41 = llvm.alloca %2 x i64 : (i64) -> !llvm.ptr
    llvm.store %39, %40 : !llvm.struct<(i64, struct<(i64, ptr)>)>, !llvm.ptr
    llvm.store %c0_i64, %41 : i64, !llvm.ptr
    %42 = call @__NS__MakeBuffer_f32(%40, %41, %2) : (!llvm.ptr, !llvm.ptr, i64) -> !llvm.struct<(i64, ptr, ptr, ptr)>
    call @__NS__Gather(%37, %42) : (!llvm.struct<(i64, ptr, ptr, ptr)>, !llvm.struct<(i64, ptr, ptr, ptr)>) -> ()
    %43 = call @__NS__GetTensor_f32(%c0_i64, %42) : (i64, !llvm.struct<(i64, ptr, ptr, ptr)>) -> !llvm.struct<(i64, struct<(i64, ptr)>)>
    %44 = call @__NS__NSMemrefToMemref_f32(%43) : (!llvm.struct<(i64, struct<(i64, ptr)>)>) -> tensor<*xf32>
    %45 = bufferization.to_memref %44 : memref<*xf32>
    %cast_12 = memref.cast %45 : memref<*xf32> to memref<2x128xf32, strided<[?, ?], offset: ?>>
    %46 = bufferization.to_tensor %cast_12 : memref<2x128xf32, strided<[?, ?], offset: ?>>
    return %46 : tensor<2x128xf32>
  }
  func.func private @__NS__SetDevice(i64)
  func.func private @softmax_1_128_softmax_1_128_fused_kernel(%arg0: tensor<1x128xf32>) -> tensor<1x128xf32> attributes {device_kernel} {
    %0 = bufferization.to_memref %arg0 : memref<1x128xf32, strided<[?, ?], offset: ?>>
    %1 = bufferization.to_memref %arg0 : memref<1x128xf32, strided<[?, ?], offset: ?>>
    %cst = arith.constant 0.000000e+00 : f32
    %cst_0 = arith.constant -3.40282347E+38 : f32
    %alloc = memref.alloc() {alignment = 64 : i64} : memref<1x128xf32>
    %alloc_1 = memref.alloc() {alignment = 64 : i64} : memref<1xf32>
    linalg.generic {indexing_maps = [#map, #map1], iterator_types = ["parallel"]} ins(%cst_0 : f32) outs(%alloc_1 : memref<1xf32>) {
    ^bb0(%in: f32, %out: f32):
      linalg.yield %in : f32
    }
    linalg.generic {indexing_maps = [#map2, #map3], iterator_types = ["parallel", "reduction"]} ins(%1 : memref<1x128xf32, strided<[?, ?], offset: ?>>) outs(%alloc_1 : memref<1xf32>) {
    ^bb0(%in: f32, %out: f32):
      %3 = arith.maxnumf %in, %out : f32
      linalg.yield %3 : f32
    }
    linalg.generic {indexing_maps = [#map2, #map3, #map2], iterator_types = ["parallel", "parallel"]} ins(%0, %alloc_1 : memref<1x128xf32, strided<[?, ?], offset: ?>>, memref<1xf32>) outs(%alloc : memref<1x128xf32>) {
    ^bb0(%in: f32, %in_4: f32, %out: f32):
      %3 = arith.subf %in, %in_4 : f32
      %4 = math.exp %3 : f32
      linalg.yield %4 : f32
    }
    linalg.generic {indexing_maps = [#map, #map1], iterator_types = ["parallel"]} ins(%cst : f32) outs(%alloc_1 : memref<1xf32>) {
    ^bb0(%in: f32, %out: f32):
      linalg.yield %in : f32
    }
    linalg.generic {indexing_maps = [#map2, #map3], iterator_types = ["parallel", "reduction"]} ins(%alloc : memref<1x128xf32>) outs(%alloc_1 : memref<1xf32>) {
    ^bb0(%in: f32, %out: f32):
      %3 = arith.addf %in, %out : f32
      linalg.yield %3 : f32
    }
    linalg.generic {indexing_maps = [#map2, #map3, #map2], iterator_types = ["parallel", "parallel"]} ins(%alloc, %alloc_1 : memref<1x128xf32>, memref<1xf32>) outs(%alloc : memref<1x128xf32>) {
    ^bb0(%in: f32, %in_4: f32, %out: f32):
      %3 = arith.divf %in, %in_4 : f32
      linalg.yield %3 : f32
    }
    %alloc_2 = memref.alloc() {alignment = 64 : i64} : memref<1x128xf32>
    %alloc_3 = memref.alloc() {alignment = 64 : i64} : memref<1xf32>
    linalg.generic {indexing_maps = [#map, #map1], iterator_types = ["parallel"]} ins(%cst_0 : f32) outs(%alloc_3 : memref<1xf32>) {
    ^bb0(%in: f32, %out: f32):
      linalg.yield %in : f32
    }
    linalg.generic {indexing_maps = [#map2, #map3], iterator_types = ["parallel", "reduction"]} ins(%alloc : memref<1x128xf32>) outs(%alloc_3 : memref<1xf32>) {
    ^bb0(%in: f32, %out: f32):
      %3 = arith.maxnumf %in, %out : f32
      linalg.yield %3 : f32
    }
    linalg.generic {indexing_maps = [#map2, #map3, #map2], iterator_types = ["parallel", "parallel"]} ins(%alloc, %alloc_3 : memref<1x128xf32>, memref<1xf32>) outs(%alloc_2 : memref<1x128xf32>) {
    ^bb0(%in: f32, %in_4: f32, %out: f32):
      %3 = arith.subf %in, %in_4 : f32
      %4 = math.exp %3 : f32
      linalg.yield %4 : f32
    }
    linalg.generic {indexing_maps = [#map, #map1], iterator_types = ["parallel"]} ins(%cst : f32) outs(%alloc_3 : memref<1xf32>) {
    ^bb0(%in: f32, %out: f32):
      linalg.yield %in : f32
    }
    linalg.generic {indexing_maps = [#map2, #map3], iterator_types = ["parallel", "reduction"]} ins(%alloc_2 : memref<1x128xf32>) outs(%alloc_3 : memref<1xf32>) {
    ^bb0(%in: f32, %out: f32):
      %3 = arith.addf %in, %out : f32
      linalg.yield %3 : f32
    }
    linalg.generic {indexing_maps = [#map2, #map3, #map2], iterator_types = ["parallel", "parallel"]} ins(%alloc_2, %alloc_3 : memref<1x128xf32>, memref<1xf32>) outs(%alloc_2 : memref<1x128xf32>) {
    ^bb0(%in: f32, %in_4: f32, %out: f32):
      %3 = arith.divf %in, %in_4 : f32
      linalg.yield %3 : f32
    }
    %2 = bufferization.to_tensor %alloc_2 : memref<1x128xf32>
    return %2 : tensor<1x128xf32>
  }
  func.func private @__NS__MemrefToNSMemref_f32(i64, tensor<*xf32>) -> !llvm.struct<(i64, struct<(i64, ptr)>)>
  func.func private @__NS__MakeBuffer_f32(!llvm.ptr, !llvm.ptr, i64) -> !llvm.struct<(i64, ptr, ptr, ptr)>
  func.func private @__NS__Scatter(!llvm.struct<(i64, ptr, ptr, ptr)>, !llvm.struct<(i64, ptr, ptr, ptr)>)
  func.func private @__NS__GetTensor_f32(i64, !llvm.struct<(i64, ptr, ptr, ptr)>) -> !llvm.struct<(i64, struct<(i64, ptr)>)>
  func.func private @__NS__NSMemrefToMemref_f32(!llvm.struct<(i64, struct<(i64, ptr)>)>) -> tensor<*xf32>
  func.func private @__NS__Gather(!llvm.struct<(i64, ptr, ptr, ptr)>, !llvm.struct<(i64, ptr, ptr, ptr)>)
}


initializing north_star
register north_star  Type
register north_star  Attr
register north_star  Op
#map = affine_map<(d0) -> ()>
#map1 = affine_map<(d0) -> (d0)>
#map2 = affine_map<(d0, d1) -> (d0, d1)>
#map3 = affine_map<(d0, d1) -> (d0)>
module @NorthStar {
  func.func @main(%arg0: tensor<2x128xf32> {func.device_id = 0 : i64}) -> tensor<2x128xf32> {
    %0 = bufferization.to_memref %arg0 : memref<2x128xf32, strided<[?, ?], offset: ?>>
    %1 = llvm.mlir.constant(2 : i64) : i64
    %2 = llvm.mlir.constant(1 : i64) : i64
    %c0_i64 = arith.constant 0 : i64
    %c1_i64 = arith.constant 1 : i64
    %alloc = memref.alloc() {alignment = 64 : i64} : memref<2x128xf32>
    memref.copy %0, %alloc : memref<2x128xf32, strided<[?, ?], offset: ?>> to memref<2x128xf32>
    %cast = memref.cast %alloc : memref<2x128xf32> to memref<*xf32>
    %3 = bufferization.to_tensor %cast : memref<*xf32>
    %4 = call @__NS__MemrefToNSMemref_f32(%c0_i64, %3) : (i64, tensor<*xf32>) -> !llvm.struct<(i64, struct<(i64, ptr)>)>
    %5 = llvm.alloca %2 x !llvm.struct<(i64, struct<(i64, ptr)>)> : (i64) -> !llvm.ptr
    %6 = llvm.alloca %2 x i64 : (i64) -> !llvm.ptr
    llvm.store %4, %5 : !llvm.struct<(i64, struct<(i64, ptr)>)>, !llvm.ptr
    llvm.store %c0_i64, %6 : i64, !llvm.ptr
    %7 = call @__NS__MakeBuffer_f32(%5, %6, %2) : (!llvm.ptr, !llvm.ptr, i64) -> !llvm.struct<(i64, ptr, ptr, ptr)>
    call @__NS__SetDevice(%c0_i64) : (i64) -> ()
    %alloc_0 = memref.alloc() {alignment = 64 : i64} : memref<1x128xf32>
    %cast_1 = memref.cast %alloc_0 : memref<1x128xf32> to memref<*xf32>
    %8 = bufferization.to_tensor %cast_1 : memref<*xf32>
    %9 = call @__NS__MemrefToNSMemref_f32(%c0_i64, %8) : (i64, tensor<*xf32>) -> !llvm.struct<(i64, struct<(i64, ptr)>)>
    call @__NS__SetDevice(%c1_i64) : (i64) -> ()
    %alloc_2 = memref.alloc() {alignment = 64 : i64} : memref<1x128xf32>
    %cast_3 = memref.cast %alloc_2 : memref<1x128xf32> to memref<*xf32>
    %10 = bufferization.to_tensor %cast_3 : memref<*xf32>
    %11 = call @__NS__MemrefToNSMemref_f32(%c1_i64, %10) : (i64, tensor<*xf32>) -> !llvm.struct<(i64, struct<(i64, ptr)>)>
    %12 = llvm.alloca %1 x !llvm.struct<(i64, struct<(i64, ptr)>)> : (i64) -> !llvm.ptr
    %13 = llvm.alloca %1 x i64 : (i64) -> !llvm.ptr
    llvm.store %9, %12 : !llvm.struct<(i64, struct<(i64, ptr)>)>, !llvm.ptr
    llvm.store %c0_i64, %13 : i64, !llvm.ptr
    %14 = llvm.getelementptr %12[1] : (!llvm.ptr) -> !llvm.ptr, !llvm.struct<(i64, struct<(i64, ptr)>)>
    llvm.store %11, %14 : !llvm.struct<(i64, struct<(i64, ptr)>)>, !llvm.ptr
    %15 = llvm.getelementptr %13[1] : (!llvm.ptr) -> !llvm.ptr, i64
    llvm.store %c1_i64, %15 : i64, !llvm.ptr
    %16 = call @__NS__MakeBuffer_f32(%12, %13, %1) : (!llvm.ptr, !llvm.ptr, i64) -> !llvm.struct<(i64, ptr, ptr, ptr)>
    call @__NS__Scatter(%7, %16) : (!llvm.struct<(i64, ptr, ptr, ptr)>, !llvm.struct<(i64, ptr, ptr, ptr)>) -> ()
    %17 = call @__NS__GetTensor_f32(%c0_i64, %16) : (i64, !llvm.struct<(i64, ptr, ptr, ptr)>) -> !llvm.struct<(i64, struct<(i64, ptr)>)>
    %18 = call @__NS__NSMemrefToMemref_f32(%17) : (!llvm.struct<(i64, struct<(i64, ptr)>)>) -> tensor<*xf32>
    %19 = bufferization.to_memref %18 : memref<*xf32>
    %cast_4 = memref.cast %19 : memref<*xf32> to memref<1x128xf32, strided<[?, ?], offset: ?>>
    %20 = bufferization.to_tensor %cast_4 : memref<1x128xf32, strided<[?, ?], offset: ?>>
    %21 = call @__NS__GetTensor_f32(%c1_i64, %16) : (i64, !llvm.struct<(i64, ptr, ptr, ptr)>) -> !llvm.struct<(i64, struct<(i64, ptr)>)>
    %22 = call @__NS__NSMemrefToMemref_f32(%21) : (!llvm.struct<(i64, struct<(i64, ptr)>)>) -> tensor<*xf32>
    %23 = bufferization.to_memref %22 : memref<*xf32>
    %cast_5 = memref.cast %23 : memref<*xf32> to memref<1x128xf32, strided<[?, ?], offset: ?>>
    %24 = bufferization.to_tensor %cast_5 : memref<1x128xf32, strided<[?, ?], offset: ?>>
    call @__NS__SetDevice(%c0_i64) : (i64) -> ()
    %25 = call @softmax_1_128_softmax_1_128_fused_kernel(%20) {device_id = 0 : i64, device_kernel} : (tensor<1x128xf32>) -> tensor<1x128xf32>
    %26 = bufferization.to_memref %25 : memref<1x128xf32, strided<[?, ?], offset: ?>>
    %alloc_6 = memref.alloc() {alignment = 64 : i64} : memref<1x128xf32>
    memref.copy %26, %alloc_6 : memref<1x128xf32, strided<[?, ?], offset: ?>> to memref<1x128xf32>
    %cast_7 = memref.cast %alloc_6 : memref<1x128xf32> to memref<*xf32>
    %27 = bufferization.to_tensor %cast_7 : memref<*xf32>
    %28 = call @__NS__MemrefToNSMemref_f32(%c0_i64, %27) : (i64, tensor<*xf32>) -> !llvm.struct<(i64, struct<(i64, ptr)>)>
    call @__NS__SetDevice(%c1_i64) : (i64) -> ()
    %29 = call @softmax_1_128_softmax_1_128_fused_kernel(%24) {device_id = 1 : i64, device_kernel} : (tensor<1x128xf32>) -> tensor<1x128xf32>
    %30 = bufferization.to_memref %29 : memref<1x128xf32, strided<[?, ?], offset: ?>>
    %alloc_8 = memref.alloc() {alignment = 64 : i64} : memref<1x128xf32>
    memref.copy %30, %alloc_8 : memref<1x128xf32, strided<[?, ?], offset: ?>> to memref<1x128xf32>
    %cast_9 = memref.cast %alloc_8 : memref<1x128xf32> to memref<*xf32>
    %31 = bufferization.to_tensor %cast_9 : memref<*xf32>
    %32 = call @__NS__MemrefToNSMemref_f32(%c1_i64, %31) : (i64, tensor<*xf32>) -> !llvm.struct<(i64, struct<(i64, ptr)>)>
    %33 = llvm.alloca %1 x !llvm.struct<(i64, struct<(i64, ptr)>)> : (i64) -> !llvm.ptr
    %34 = llvm.alloca %1 x i64 : (i64) -> !llvm.ptr
    llvm.store %28, %33 : !llvm.struct<(i64, struct<(i64, ptr)>)>, !llvm.ptr
    llvm.store %c0_i64, %34 : i64, !llvm.ptr
    %35 = llvm.getelementptr %33[1] : (!llvm.ptr) -> !llvm.ptr, !llvm.struct<(i64, struct<(i64, ptr)>)>
    llvm.store %32, %35 : !llvm.struct<(i64, struct<(i64, ptr)>)>, !llvm.ptr
    %36 = llvm.getelementptr %34[1] : (!llvm.ptr) -> !llvm.ptr, i64
    llvm.store %c1_i64, %36 : i64, !llvm.ptr
    %37 = call @__NS__MakeBuffer_f32(%33, %34, %1) : (!llvm.ptr, !llvm.ptr, i64) -> !llvm.struct<(i64, ptr, ptr, ptr)>
    call @__NS__SetDevice(%c0_i64) : (i64) -> ()
    %alloc_10 = memref.alloc() {alignment = 64 : i64} : memref<2x128xf32>
    %cast_11 = memref.cast %alloc_10 : memref<2x128xf32> to memref<*xf32>
    %38 = bufferization.to_tensor %cast_11 : memref<*xf32>
    %39 = call @__NS__MemrefToNSMemref_f32(%c0_i64, %38) : (i64, tensor<*xf32>) -> !llvm.struct<(i64, struct<(i64, ptr)>)>
    %40 = llvm.alloca %2 x !llvm.struct<(i64, struct<(i64, ptr)>)> : (i64) -> !llvm.ptr
    %41 = llvm.alloca %2 x i64 : (i64) -> !llvm.ptr
    llvm.store %39, %40 : !llvm.struct<(i64, struct<(i64, ptr)>)>, !llvm.ptr
    llvm.store %c0_i64, %41 : i64, !llvm.ptr
    %42 = call @__NS__MakeBuffer_f32(%40, %41, %2) : (!llvm.ptr, !llvm.ptr, i64) -> !llvm.struct<(i64, ptr, ptr, ptr)>
    call @__NS__Gather(%37, %42) : (!llvm.struct<(i64, ptr, ptr, ptr)>, !llvm.struct<(i64, ptr, ptr, ptr)>) -> ()
    %43 = call @__NS__GetTensor_f32(%c0_i64, %42) : (i64, !llvm.struct<(i64, ptr, ptr, ptr)>) -> !llvm.struct<(i64, struct<(i64, ptr)>)>
    %44 = call @__NS__NSMemrefToMemref_f32(%43) : (!llvm.struct<(i64, struct<(i64, ptr)>)>) -> tensor<*xf32>
    %45 = bufferization.to_memref %44 : memref<*xf32>
    %cast_12 = memref.cast %45 : memref<*xf32> to memref<2x128xf32, strided<[?, ?], offset: ?>>
    %46 = bufferization.to_tensor %cast_12 : memref<2x128xf32, strided<[?, ?], offset: ?>>
    return %46 : tensor<2x128xf32>
  }
  func.func private @__NS__SetDevice(i64)
  func.func private @softmax_1_128_softmax_1_128_fused_kernel(%arg0: tensor<1x128xf32>) -> tensor<1x128xf32> attributes {device_kernel} {
    %0 = bufferization.to_memref %arg0 : memref<1x128xf32, strided<[?, ?], offset: ?>>
    %1 = bufferization.to_memref %arg0 : memref<1x128xf32, strided<[?, ?], offset: ?>>
    %cst = arith.constant 0.000000e+00 : f32
    %cst_0 = arith.constant -3.40282347E+38 : f32
    %alloc = memref.alloc() {alignment = 64 : i64} : memref<1x128xf32>
    %alloc_1 = memref.alloc() {alignment = 64 : i64} : memref<1xf32>
    linalg.generic {indexing_maps = [#map, #map1], iterator_types = ["parallel"]} ins(%cst_0 : f32) outs(%alloc_1 : memref<1xf32>) {
    ^bb0(%in: f32, %out: f32):
      linalg.yield %in : f32
    }
    linalg.generic {indexing_maps = [#map2, #map3], iterator_types = ["parallel", "reduction"]} ins(%1 : memref<1x128xf32, strided<[?, ?], offset: ?>>) outs(%alloc_1 : memref<1xf32>) {
    ^bb0(%in: f32, %out: f32):
      %3 = arith.maxnumf %in, %out : f32
      linalg.yield %3 : f32
    }
    linalg.generic {indexing_maps = [#map2, #map3, #map2], iterator_types = ["parallel", "parallel"]} ins(%0, %alloc_1 : memref<1x128xf32, strided<[?, ?], offset: ?>>, memref<1xf32>) outs(%alloc : memref<1x128xf32>) {
    ^bb0(%in: f32, %in_4: f32, %out: f32):
      %3 = arith.subf %in, %in_4 : f32
      %4 = math.exp %3 : f32
      linalg.yield %4 : f32
    }
    linalg.generic {indexing_maps = [#map, #map1], iterator_types = ["parallel"]} ins(%cst : f32) outs(%alloc_1 : memref<1xf32>) {
    ^bb0(%in: f32, %out: f32):
      linalg.yield %in : f32
    }
    linalg.generic {indexing_maps = [#map2, #map3], iterator_types = ["parallel", "reduction"]} ins(%alloc : memref<1x128xf32>) outs(%alloc_1 : memref<1xf32>) {
    ^bb0(%in: f32, %out: f32):
      %3 = arith.addf %in, %out : f32
      linalg.yield %3 : f32
    }
    linalg.generic {indexing_maps = [#map2, #map3, #map2], iterator_types = ["parallel", "parallel"]} ins(%alloc, %alloc_1 : memref<1x128xf32>, memref<1xf32>) outs(%alloc : memref<1x128xf32>) {
    ^bb0(%in: f32, %in_4: f32, %out: f32):
      %3 = arith.divf %in, %in_4 : f32
      linalg.yield %3 : f32
    }
    %alloc_2 = memref.alloc() {alignment = 64 : i64} : memref<1x128xf32>
    %alloc_3 = memref.alloc() {alignment = 64 : i64} : memref<1xf32>
    linalg.generic {indexing_maps = [#map, #map1], iterator_types = ["parallel"]} ins(%cst_0 : f32) outs(%alloc_3 : memref<1xf32>) {
    ^bb0(%in: f32, %out: f32):
      linalg.yield %in : f32
    }
    linalg.generic {indexing_maps = [#map2, #map3], iterator_types = ["parallel", "reduction"]} ins(%alloc : memref<1x128xf32>) outs(%alloc_3 : memref<1xf32>) {
    ^bb0(%in: f32, %out: f32):
      %3 = arith.maxnumf %in, %out : f32
      linalg.yield %3 : f32
    }
    linalg.generic {indexing_maps = [#map2, #map3, #map2], iterator_types = ["parallel", "parallel"]} ins(%alloc, %alloc_3 : memref<1x128xf32>, memref<1xf32>) outs(%alloc_2 : memref<1x128xf32>) {
    ^bb0(%in: f32, %in_4: f32, %out: f32):
      %3 = arith.subf %in, %in_4 : f32
      %4 = math.exp %3 : f32
      linalg.yield %4 : f32
    }
    linalg.generic {indexing_maps = [#map, #map1], iterator_types = ["parallel"]} ins(%cst : f32) outs(%alloc_3 : memref<1xf32>) {
    ^bb0(%in: f32, %out: f32):
      linalg.yield %in : f32
    }
    linalg.generic {indexing_maps = [#map2, #map3], iterator_types = ["parallel", "reduction"]} ins(%alloc_2 : memref<1x128xf32>) outs(%alloc_3 : memref<1xf32>) {
    ^bb0(%in: f32, %out: f32):
      %3 = arith.addf %in, %out : f32
      linalg.yield %3 : f32
    }
    linalg.generic {indexing_maps = [#map2, #map3, #map2], iterator_types = ["parallel", "parallel"]} ins(%alloc_2, %alloc_3 : memref<1x128xf32>, memref<1xf32>) outs(%alloc_2 : memref<1x128xf32>) {
    ^bb0(%in: f32, %in_4: f32, %out: f32):
      %3 = arith.divf %in, %in_4 : f32
      linalg.yield %3 : f32
    }
    %2 = bufferization.to_tensor %alloc_2 : memref<1x128xf32>
    return %2 : tensor<1x128xf32>
  }
  func.func private @__NS__MemrefToNSMemref_f32(i64, tensor<*xf32>) -> !llvm.struct<(i64, struct<(i64, ptr)>)>
  func.func private @__NS__MakeBuffer_f32(!llvm.ptr, !llvm.ptr, i64) -> !llvm.struct<(i64, ptr, ptr, ptr)>
  func.func private @__NS__Scatter(!llvm.struct<(i64, ptr, ptr, ptr)>, !llvm.struct<(i64, ptr, ptr, ptr)>)
  func.func private @__NS__GetTensor_f32(i64, !llvm.struct<(i64, ptr, ptr, ptr)>) -> !llvm.struct<(i64, struct<(i64, ptr)>)>
  func.func private @__NS__NSMemrefToMemref_f32(!llvm.struct<(i64, struct<(i64, ptr)>)>) -> tensor<*xf32>
  func.func private @__NS__Gather(!llvm.struct<(i64, ptr, ptr, ptr)>, !llvm.struct<(i64, ptr, ptr, ptr)>)
}

destroying north_star
